{"format": "graph-model", "generatedBy": "2.4.1", "convertedBy": "TensorFlow.js Converter v3.6.0", "signature": {"outputs": {"Reshape_2:0": {"name": "Reshape_2:0"}, "rpn_bbox_pred/Reshape_1:0": {"name": "rpn_bbox_pred/Reshape_1:0"}}}, "modelTopology": {"node": [{"name": "strided_slice_6/stack", "op": "Const", "attr": {"value": {"tensor": {"dtype": "DT_INT32", "tensorShape": {"dim": [{"size": "1"}]}}}, "dtype": {"type": "DT_INT32"}}}, {"name": "strided_slice_6/stack_1", "op": "Const", "attr": {"value": {"tensor": {"dtype": "DT_INT32", "tensorShape": {"dim": [{"size": "1"}]}}}, "dtype": {"type": "DT_INT32"}}}, {"name": "strided_slice_6/stack_2", "op": "Const", "attr": {"value": {"tensor": {"dtype": "DT_INT32", "tensorShape": {"dim": [{"size": "1"}]}}}, "dtype": {"type": "DT_INT32"}}}, {"name": "Reshape_1/shape/0", "op": "Const", "attr": {"value": {"tensor": {"dtype": "DT_INT32", "tensorShape": {}}}, "dtype": {"type": "DT_INT32"}}}, {"name": "strided_slice_2/stack", "op": "Const", "attr": {"value": {"tensor": {"dtype": "DT_INT32", "tensorShape": {"dim": [{"size": "1"}]}}}, "dtype": {"type": "DT_INT32"}}}, {"name": "strided_slice_2/stack_1", "op": "Const", "attr": {"value": {"tensor": {"dtype": "DT_INT32", "tensorShape": {"dim": [{"size": "1"}]}}}, "dtype": {"type": "DT_INT32"}}}, {"name": "strided_slice_2/stack_2", "op": "Const", "attr": {"value": {"tensor": {"dtype": "DT_INT32", "tensorShape": {"dim": [{"size": "1"}]}}}, "dtype": {"type": "DT_INT32"}}}, {"name": "rpn_cls_prob/shape/0", "op": "Const", "attr": {"value": {"tensor": {"dtype": "DT_INT32", "tensorShape": {}}}, "dtype": {"type": "DT_INT32"}}}, {"name": "strided_slice_3/stack", "op": "Const", "attr": {"value": {"tensor": {"dtype": "DT_INT32", "tensorShape": {"dim": [{"size": "1"}]}}}, "dtype": {"type": "DT_INT32"}}}, {"name": "strided_slice_3/stack_1", "op": "Const", "attr": {"value": {"tensor": {"dtype": "DT_INT32", "tensorShape": {"dim": [{"size": "1"}]}}}, "dtype": {"type": "DT_INT32"}}}, {"name": "strided_slice_3/stack_2", "op": "Const", "attr": {"value": {"tensor": {"dtype": "DT_INT32", "tensorShape": {"dim": [{"size": "1"}]}}}, "dtype": {"type": "DT_INT32"}}}, {"name": "strided_slice_4/stack", "op": "Const", "attr": {"value": {"tensor": {"dtype": "DT_INT32", "tensorShape": {"dim": [{"size": "1"}]}}}, "dtype": {"type": "DT_INT32"}}}, {"name": "strided_slice_4/stack_1", "op": "Const", "attr": {"value": {"tensor": {"dtype": "DT_INT32", "tensorShape": {"dim": [{"size": "1"}]}}}, "dtype": {"type": "DT_INT32"}}}, {"name": "strided_slice_4/stack_2", "op": "Const", "attr": {"value": {"tensor": {"dtype": "DT_INT32", "tensorShape": {"dim": [{"size": "1"}]}}}, "dtype": {"type": "DT_INT32"}}}, {"name": "strided_slice/stack", "op": "Const", "attr": {"value": {"tensor": {"dtype": "DT_INT32", "tensorShape": {"dim": [{"size": "1"}]}}}, "dtype": {"type": "DT_INT32"}}}, {"name": "strided_slice/stack_1", "op": "Const", "attr": {"value": {"tensor": {"dtype": "DT_INT32", "tensorShape": {"dim": [{"size": "1"}]}}}, "dtype": {"type": "DT_INT32"}}}, {"name": "strided_slice/stack_2", "op": "Const", "attr": {"value": {"tensor": {"dtype": "DT_INT32", "tensorShape": {"dim": [{"size": "1"}]}}}, "dtype": {"type": "DT_INT32"}}}, {"name": "rpn_cls_score/strided_slice_3/stack", "op": "Const", "attr": {"value": {"tensor": {"dtype": "DT_INT32", "tensorShape": {"dim": [{"size": "1"}]}}}, "dtype": {"type": "DT_INT32"}}}, {"name": "rpn_cls_score/strided_slice_3/stack_1", "op": "Const", "attr": {"value": {"tensor": {"dtype": "DT_INT32", "tensorShape": {"dim": [{"size": "1"}]}}}, "dtype": {"type": "DT_INT32"}}}, {"name": "rpn_cls_score/strided_slice_3/stack_2", "op": "Const", "attr": {"value": {"tensor": {"dtype": "DT_INT32", "tensorShape": {"dim": [{"size": "1"}]}}}, "dtype": {"type": "DT_INT32"}}}, {"name": "rpn_cls_score/weights", "op": "Const", "attr": {"value": {"tensor": {"dtype": "DT_FLOAT", "tensorShape": {"dim": [{"size": "512"}, {"size": "20"}]}}}, "dtype": {"type": "DT_FLOAT"}}}, {"name": "rpn_cls_score/biases", "op": "Const", "attr": {"value": {"tensor": {"dtype": "DT_FLOAT", "tensorShape": {"dim": [{"size": "20"}]}}}, "dtype": {"type": "DT_FLOAT"}}}, {"name": "rpn_cls_score/strided_slice/stack", "op": "Const", "attr": {"value": {"tensor": {"dtype": "DT_INT32", "tensorShape": {"dim": [{"size": "1"}]}}}, "dtype": {"type": "DT_INT32"}}}, {"name": "rpn_cls_score/strided_slice/stack_1", "op": "Const", "attr": {"value": {"tensor": {"dtype": "DT_INT32", "tensorShape": {"dim": [{"size": "1"}]}}}, "dtype": {"type": "DT_INT32"}}}, {"name": "rpn_cls_score/strided_slice/stack_2", "op": "Const", "attr": {"value": {"tensor": {"dtype": "DT_INT32", "tensorShape": {"dim": [{"size": "1"}]}}}, "dtype": {"type": "DT_INT32"}}}, {"name": "rpn_cls_score/strided_slice_1/stack", "op": "Const", "attr": {"value": {"tensor": {"dtype": "DT_INT32", "tensorShape": {"dim": [{"size": "1"}]}}}, "dtype": {"type": "DT_INT32"}}}, {"name": "rpn_cls_score/strided_slice_1/stack_1", "op": "Const", "attr": {"value": {"tensor": {"dtype": "DT_INT32", "tensorShape": {"dim": [{"size": "1"}]}}}, "dtype": {"type": "DT_INT32"}}}, {"name": "rpn_cls_score/strided_slice_1/stack_2", "op": "Const", "attr": {"value": {"tensor": {"dtype": "DT_INT32", "tensorShape": {"dim": [{"size": "1"}]}}}, "dtype": {"type": "DT_INT32"}}}, {"name": "rpn_cls_score/strided_slice_2/stack", "op": "Const", "attr": {"value": {"tensor": {"dtype": "DT_INT32", "tensorShape": {"dim": [{"size": "1"}]}}}, "dtype": {"type": "DT_INT32"}}}, {"name": "rpn_cls_score/strided_slice_2/stack_1", "op": "Const", "attr": {"value": {"tensor": {"dtype": "DT_INT32", "tensorShape": {"dim": [{"size": "1"}]}}}, "dtype": {"type": "DT_INT32"}}}, {"name": "rpn_cls_score/strided_slice_2/stack_2", "op": "Const", "attr": {"value": {"tensor": {"dtype": "DT_INT32", "tensorShape": {"dim": [{"size": "1"}]}}}, "dtype": {"type": "DT_INT32"}}}, {"name": "rpn_cls_score/Reshape_1/shape/3", "op": "Const", "attr": {"value": {"tensor": {"dtype": "DT_INT32", "tensorShape": {}}}, "dtype": {"type": "DT_INT32"}}}, {"name": "strided_slice_1/stack", "op": "Const", "attr": {"value": {"tensor": {"dtype": "DT_INT32", "tensorShape": {"dim": [{"size": "1"}]}}}, "dtype": {"type": "DT_INT32"}}}, {"name": "strided_slice_1/stack_1", "op": "Const", "attr": {"value": {"tensor": {"dtype": "DT_INT32", "tensorShape": {"dim": [{"size": "1"}]}}}, "dtype": {"type": "DT_INT32"}}}, {"name": "strided_slice_1/stack_2", "op": "Const", "attr": {"value": {"tensor": {"dtype": "DT_INT32", "tensorShape": {"dim": [{"size": "1"}]}}}, "dtype": {"type": "DT_INT32"}}}, {"name": "Reshape/shape/2", "op": "Const", "attr": {"value": {"tensor": {"dtype": "DT_INT32", "tensorShape": {}}}, "dtype": {"type": "DT_INT32"}}}, {"name": "Reshape/shape/3", "op": "Const", "attr": {"value": {"tensor": {"dtype": "DT_INT32", "tensorShape": {}}}, "dtype": {"type": "DT_INT32"}}}, {"name": "strided_slice_5/stack", "op": "Const", "attr": {"value": {"tensor": {"dtype": "DT_INT32", "tensorShape": {"dim": [{"size": "1"}]}}}, "dtype": {"type": "DT_INT32"}}}, {"name": "strided_slice_5/stack_1", "op": "Const", "attr": {"value": {"tensor": {"dtype": "DT_INT32", "tensorShape": {"dim": [{"size": "1"}]}}}, "dtype": {"type": "DT_INT32"}}}, {"name": "strided_slice_5/stack_2", "op": "Const", "attr": {"value": {"tensor": {"dtype": "DT_INT32", "tensorShape": {"dim": [{"size": "1"}]}}}, "dtype": {"type": "DT_INT32"}}}, {"name": "strided_slice_7/stack", "op": "Const", "attr": {"value": {"tensor": {"dtype": "DT_INT32", "tensorShape": {"dim": [{"size": "1"}]}}}, "dtype": {"type": "DT_INT32"}}}, {"name": "strided_slice_7/stack_1", "op": "Const", "attr": {"value": {"tensor": {"dtype": "DT_INT32", "tensorShape": {"dim": [{"size": "1"}]}}}, "dtype": {"type": "DT_INT32"}}}, {"name": "strided_slice_7/stack_2", "op": "Const", "attr": {"value": {"tensor": {"dtype": "DT_INT32", "tensorShape": {"dim": [{"size": "1"}]}}}, "dtype": {"type": "DT_INT32"}}}, {"name": "Reshape_2/shape/2", "op": "Const", "attr": {"value": {"tensor": {"dtype": "DT_INT32", "tensorShape": {}}}, "dtype": {"type": "DT_INT32"}}}, {"name": "Reshape_2/shape/3", "op": "Const", "attr": {"value": {"tensor": {"dtype": "DT_INT32", "tensorShape": {}}}, "dtype": {"type": "DT_INT32"}}}, {"name": "rpn_bbox_pred/strided_slice_3/stack", "op": "Const", "attr": {"value": {"tensor": {"dtype": "DT_INT32", "tensorShape": {"dim": [{"size": "1"}]}}}, "dtype": {"type": "DT_INT32"}}}, {"name": "rpn_bbox_pred/strided_slice_3/stack_1", "op": "Const", "attr": {"value": {"tensor": {"dtype": "DT_INT32", "tensorShape": {"dim": [{"size": "1"}]}}}, "dtype": {"type": "DT_INT32"}}}, {"name": "rpn_bbox_pred/strided_slice_3/stack_2", "op": "Const", "attr": {"value": {"tensor": {"dtype": "DT_INT32", "tensorShape": {"dim": [{"size": "1"}]}}}, "dtype": {"type": "DT_INT32"}}}, {"name": "rpn_bbox_pred/weights", "op": "Const", "attr": {"value": {"tensor": {"dtype": "DT_FLOAT", "tensorShape": {"dim": [{"size": "512"}, {"size": "40"}]}}}, "dtype": {"type": "DT_FLOAT"}}}, {"name": "rpn_bbox_pred/biases", "op": "Const", "attr": {"value": {"tensor": {"dtype": "DT_FLOAT", "tensorShape": {"dim": [{"size": "40"}]}}}, "dtype": {"type": "DT_FLOAT"}}}, {"name": "rpn_bbox_pred/strided_slice/stack", "op": "Const", "attr": {"value": {"tensor": {"dtype": "DT_INT32", "tensorShape": {"dim": [{"size": "1"}]}}}, "dtype": {"type": "DT_INT32"}}}, {"name": "rpn_bbox_pred/strided_slice/stack_1", "op": "Const", "attr": {"value": {"tensor": {"dtype": "DT_INT32", "tensorShape": {"dim": [{"size": "1"}]}}}, "dtype": {"type": "DT_INT32"}}}, {"name": "rpn_bbox_pred/strided_slice/stack_2", "op": "Const", "attr": {"value": {"tensor": {"dtype": "DT_INT32", "tensorShape": {"dim": [{"size": "1"}]}}}, "dtype": {"type": "DT_INT32"}}}, {"name": "rpn_bbox_pred/strided_slice_1/stack", "op": "Const", "attr": {"value": {"tensor": {"dtype": "DT_INT32", "tensorShape": {"dim": [{"size": "1"}]}}}, "dtype": {"type": "DT_INT32"}}}, {"name": "rpn_bbox_pred/strided_slice_1/stack_1", "op": "Const", "attr": {"value": {"tensor": {"dtype": "DT_INT32", "tensorShape": {"dim": [{"size": "1"}]}}}, "dtype": {"type": "DT_INT32"}}}, {"name": "rpn_bbox_pred/strided_slice_1/stack_2", "op": "Const", "attr": {"value": {"tensor": {"dtype": "DT_INT32", "tensorShape": {"dim": [{"size": "1"}]}}}, "dtype": {"type": "DT_INT32"}}}, {"name": "lstm_o/bidirectional_rnn/fw/fw/TensorArrayStack/range/start", "op": "Const", "attr": {"value": {"tensor": {"dtype": "DT_INT32", "tensorShape": {}}}, "dtype": {"type": "DT_INT32"}}}, {"name": "lstm_o/bidirectional_rnn/fw/fw/TensorArrayStack/range/delta", "op": "Const", "attr": {"value": {"tensor": {"dtype": "DT_INT32", "tensorShape": {}}}, "dtype": {"type": "DT_INT32"}}}, {"name": "lstm_o/bidirectional_rnn/fw/fw/LSTMCellZeroState/ExpandDims/dim", "op": "Const", "attr": {"value": {"tensor": {"dtype": "DT_INT32", "tensorShape": {}}}, "dtype": {"type": "DT_INT32"}}}, {"name": "lstm_o/bidirectional_rnn/fw/fw/LSTMCellZeroState/Const", "op": "Const", "attr": {"value": {"tensor": {"dtype": "DT_INT32", "tensorShape": {"dim": [{"size": "1"}]}}}, "dtype": {"type": "DT_INT32"}}}, {"name": "lstm_o/bidirectional_rnn/fw/fw/LSTMCellZeroState/concat/axis", "op": "Const", "attr": {"value": {"tensor": {"dtype": "DT_INT32", "tensorShape": {}}}, "dtype": {"type": "DT_INT32"}}}, {"name": "lstm_o/bidirectional_rnn/fw/fw/LSTMCellZeroState/zeros/Const", "op": "Const", "attr": {"value": {"tensor": {"dtype": "DT_FLOAT", "tensorShape": {}}}, "dtype": {"type": "DT_FLOAT"}}}, {"name": "lstm_o/bidirectional_rnn/fw/fw/TensorArrayUnstack/range/start", "op": "Const", "attr": {"value": {"tensor": {"dtype": "DT_INT32", "tensorShape": {}}}, "dtype": {"type": "DT_INT32"}}}, {"name": "lstm_o/bidirectional_rnn/fw/fw/TensorArrayUnstack/strided_slice/stack", "op": "Const", "attr": {"value": {"tensor": {"dtype": "DT_INT32", "tensorShape": {"dim": [{"size": "1"}]}}}, "dtype": {"type": "DT_INT32"}}}, {"name": "lstm_o/bidirectional_rnn/fw/fw/TensorArrayUnstack/strided_slice/stack_1", "op": "Const", "attr": {"value": {"tensor": {"dtype": "DT_INT32", "tensorShape": {"dim": [{"size": "1"}]}}}, "dtype": {"type": "DT_INT32"}}}, {"name": "lstm_o/bidirectional_rnn/fw/fw/TensorArrayUnstack/strided_slice/stack_2", "op": "Const", "attr": {"value": {"tensor": {"dtype": "DT_INT32", "tensorShape": {"dim": [{"size": "1"}]}}}, "dtype": {"type": "DT_INT32"}}}, {"name": "lstm_o/bidirectional_rnn/fw/fw/TensorArrayUnstack/range/delta", "op": "Const", "attr": {"value": {"tensor": {"dtype": "DT_INT32", "tensorShape": {}}}, "dtype": {"type": "DT_INT32"}}}, {"name": "lstm_o/bidirectional_rnn/fw/fw/strided_slice/stack", "op": "Const", "attr": {"value": {"tensor": {"dtype": "DT_INT32", "tensorShape": {"dim": [{"size": "1"}]}}}, "dtype": {"type": "DT_INT32"}}}, {"name": "lstm_o/bidirectional_rnn/fw/fw/strided_slice/stack_1", "op": "Const", "attr": {"value": {"tensor": {"dtype": "DT_INT32", "tensorShape": {"dim": [{"size": "1"}]}}}, "dtype": {"type": "DT_INT32"}}}, {"name": "lstm_o/bidirectional_rnn/fw/fw/strided_slice/stack_2", "op": "Const", "attr": {"value": {"tensor": {"dtype": "DT_INT32", "tensorShape": {"dim": [{"size": "1"}]}}}, "dtype": {"type": "DT_INT32"}}}, {"name": "lstm_o/bidirectional_rnn/fw/fw/LSTMCellZeroState/ExpandDims_2/dim", "op": "Const", "attr": {"value": {"tensor": {"dtype": "DT_INT32", "tensorShape": {}}}, "dtype": {"type": "DT_INT32"}}}, {"name": "lstm_o/bidirectional_rnn/fw/fw/LSTMCellZeroState/Const_2", "op": "Const", "attr": {"value": {"tensor": {"dtype": "DT_INT32", "tensorShape": {"dim": [{"size": "1"}]}}}, "dtype": {"type": "DT_INT32"}}}, {"name": "lstm_o/bidirectional_rnn/fw/fw/LSTMCellZeroState/concat_1/axis", "op": "Const", "attr": {"value": {"tensor": {"dtype": "DT_INT32", "tensorShape": {}}}, "dtype": {"type": "DT_INT32"}}}, {"name": "lstm_o/bidirectional_rnn/fw/fw/LSTMCellZeroState/zeros_1/Const", "op": "Const", "attr": {"value": {"tensor": {"dtype": "DT_FLOAT", "tensorShape": {}}}, "dtype": {"type": "DT_FLOAT"}}}, {"name": "lstm_o/bidirectional_rnn/fw/lstm_cell/kernel", "op": "Const", "attr": {"value": {"tensor": {"dtype": "DT_FLOAT", "tensorShape": {"dim": [{"size": "640"}, {"size": "512"}]}}}, "dtype": {"type": "DT_FLOAT"}}}, {"name": "lstm_o/bidirectional_rnn/fw/lstm_cell/bias", "op": "Const", "attr": {"value": {"tensor": {"dtype": "DT_FLOAT", "tensorShape": {"dim": [{"size": "512"}]}}}, "dtype": {"type": "DT_FLOAT"}}}, {"name": "lstm_o/bidirectional_rnn/fw/fw/time", "op": "Const", "attr": {"value": {"tensor": {"dtype": "DT_INT32", "tensorShape": {}}}, "dtype": {"type": "DT_INT32"}}}, {"name": "lstm_o/bidirectional_rnn/fw/concat", "op": "Const", "attr": {"value": {"tensor": {"dtype": "DT_INT32", "tensorShape": {"dim": [{"size": "3"}]}}}, "dtype": {"type": "DT_INT32"}}}, {"name": "lstm_o/bidirectional_rnn/fw/fw/strided_slice_1/stack", "op": "Const", "attr": {"value": {"tensor": {"dtype": "DT_INT32", "tensorShape": {"dim": [{"size": "1"}]}}}, "dtype": {"type": "DT_INT32"}}}, {"name": "lstm_o/bidirectional_rnn/fw/fw/strided_slice_1/stack_1", "op": "Const", "attr": {"value": {"tensor": {"dtype": "DT_INT32", "tensorShape": {"dim": [{"size": "1"}]}}}, "dtype": {"type": "DT_INT32"}}}, {"name": "lstm_o/bidirectional_rnn/fw/fw/strided_slice_1/stack_2", "op": "Const", "attr": {"value": {"tensor": {"dtype": "DT_INT32", "tensorShape": {"dim": [{"size": "1"}]}}}, "dtype": {"type": "DT_INT32"}}}, {"name": "lstm_o/bidirectional_rnn/fw/fw/concat_1", "op": "Const", "attr": {"value": {"tensor": {"dtype": "DT_INT32", "tensorShape": {"dim": [{"size": "3"}]}}}, "dtype": {"type": "DT_INT32"}}}, {"name": "lstm_o/bidirectional_rnn/bw/bw/TensorArrayStack/range/start", "op": "Const", "attr": {"value": {"tensor": {"dtype": "DT_INT32", "tensorShape": {}}}, "dtype": {"type": "DT_INT32"}}}, {"name": "lstm_o/bidirectional_rnn/bw/bw/TensorArrayStack/range/delta", "op": "Const", "attr": {"value": {"tensor": {"dtype": "DT_INT32", "tensorShape": {}}}, "dtype": {"type": "DT_INT32"}}}, {"name": "lstm_o/bidirectional_rnn/bw/bw/LSTMCellZeroState/ExpandDims/dim", "op": "Const", "attr": {"value": {"tensor": {"dtype": "DT_INT32", "tensorShape": {}}}, "dtype": {"type": "DT_INT32"}}}, {"name": "lstm_o/bidirectional_rnn/bw/bw/LSTMCellZeroState/Const", "op": "Const", "attr": {"value": {"tensor": {"dtype": "DT_INT32", "tensorShape": {"dim": [{"size": "1"}]}}}, "dtype": {"type": "DT_INT32"}}}, {"name": "lstm_o/bidirectional_rnn/bw/bw/LSTMCellZeroState/concat/axis", "op": "Const", "attr": {"value": {"tensor": {"dtype": "DT_INT32", "tensorShape": {}}}, "dtype": {"type": "DT_INT32"}}}, {"name": "lstm_o/bidirectional_rnn/bw/bw/LSTMCellZeroState/zeros/Const", "op": "Const", "attr": {"value": {"tensor": {"dtype": "DT_FLOAT", "tensorShape": {}}}, "dtype": {"type": "DT_FLOAT"}}}, {"name": "lstm_o/bidirectional_rnn/bw/bw/TensorArrayUnstack/range/start", "op": "Const", "attr": {"value": {"tensor": {"dtype": "DT_INT32", "tensorShape": {}}}, "dtype": {"type": "DT_INT32"}}}, {"name": "lstm_o/bidirectional_rnn/bw/bw/TensorArrayUnstack/strided_slice/stack", "op": "Const", "attr": {"value": {"tensor": {"dtype": "DT_INT32", "tensorShape": {"dim": [{"size": "1"}]}}}, "dtype": {"type": "DT_INT32"}}}, {"name": "lstm_o/bidirectional_rnn/bw/bw/TensorArrayUnstack/strided_slice/stack_1", "op": "Const", "attr": {"value": {"tensor": {"dtype": "DT_INT32", "tensorShape": {"dim": [{"size": "1"}]}}}, "dtype": {"type": "DT_INT32"}}}, {"name": "lstm_o/bidirectional_rnn/bw/bw/TensorArrayUnstack/strided_slice/stack_2", "op": "Const", "attr": {"value": {"tensor": {"dtype": "DT_INT32", "tensorShape": {"dim": [{"size": "1"}]}}}, "dtype": {"type": "DT_INT32"}}}, {"name": "lstm_o/bidirectional_rnn/bw/bw/TensorArrayUnstack/range/delta", "op": "Const", "attr": {"value": {"tensor": {"dtype": "DT_INT32", "tensorShape": {}}}, "dtype": {"type": "DT_INT32"}}}, {"name": "lstm_o/bidirectional_rnn/bw/bw/strided_slice/stack", "op": "Const", "attr": {"value": {"tensor": {"dtype": "DT_INT32", "tensorShape": {"dim": [{"size": "1"}]}}}, "dtype": {"type": "DT_INT32"}}}, {"name": "lstm_o/bidirectional_rnn/bw/bw/strided_slice/stack_1", "op": "Const", "attr": {"value": {"tensor": {"dtype": "DT_INT32", "tensorShape": {"dim": [{"size": "1"}]}}}, "dtype": {"type": "DT_INT32"}}}, {"name": "lstm_o/bidirectional_rnn/bw/bw/strided_slice/stack_2", "op": "Const", "attr": {"value": {"tensor": {"dtype": "DT_INT32", "tensorShape": {"dim": [{"size": "1"}]}}}, "dtype": {"type": "DT_INT32"}}}, {"name": "lstm_o/bidirectional_rnn/bw/bw/LSTMCellZeroState/ExpandDims_2/dim", "op": "Const", "attr": {"value": {"tensor": {"dtype": "DT_INT32", "tensorShape": {}}}, "dtype": {"type": "DT_INT32"}}}, {"name": "lstm_o/bidirectional_rnn/bw/bw/LSTMCellZeroState/Const_2", "op": "Const", "attr": {"value": {"tensor": {"dtype": "DT_INT32", "tensorShape": {"dim": [{"size": "1"}]}}}, "dtype": {"type": "DT_INT32"}}}, {"name": "lstm_o/bidirectional_rnn/bw/bw/LSTMCellZeroState/concat_1/axis", "op": "Const", "attr": {"value": {"tensor": {"dtype": "DT_INT32", "tensorShape": {}}}, "dtype": {"type": "DT_INT32"}}}, {"name": "lstm_o/bidirectional_rnn/bw/bw/LSTMCellZeroState/zeros_1/Const", "op": "Const", "attr": {"value": {"tensor": {"dtype": "DT_FLOAT", "tensorShape": {}}}, "dtype": {"type": "DT_FLOAT"}}}, {"name": "lstm_o/bidirectional_rnn/bw/lstm_cell/kernel", "op": "Const", "attr": {"value": {"tensor": {"dtype": "DT_FLOAT", "tensorShape": {"dim": [{"size": "640"}, {"size": "512"}]}}}, "dtype": {"type": "DT_FLOAT"}}}, {"name": "lstm_o/bidirectional_rnn/bw/lstm_cell/bias", "op": "Const", "attr": {"value": {"tensor": {"dtype": "DT_FLOAT", "tensorShape": {"dim": [{"size": "512"}]}}}, "dtype": {"type": "DT_FLOAT"}}}, {"name": "lstm_o/bidirectional_rnn/bw/bw/time", "op": "Const", "attr": {"value": {"tensor": {"dtype": "DT_INT32", "tensorShape": {}}}, "dtype": {"type": "DT_INT32"}}}, {"name": "lstm_o/strided_slice_3/stack", "op": "Const", "attr": {"value": {"tensor": {"dtype": "DT_INT32", "tensorShape": {"dim": [{"size": "1"}]}}}, "dtype": {"type": "DT_INT32"}}}, {"name": "lstm_o/strided_slice_3/stack_1", "op": "Const", "attr": {"value": {"tensor": {"dtype": "DT_INT32", "tensorShape": {"dim": [{"size": "1"}]}}}, "dtype": {"type": "DT_INT32"}}}, {"name": "lstm_o/strided_slice_3/stack_2", "op": "Const", "attr": {"value": {"tensor": {"dtype": "DT_INT32", "tensorShape": {"dim": [{"size": "1"}]}}}, "dtype": {"type": "DT_INT32"}}}, {"name": "lstm_o/bidirectional_rnn/bw/ReverseV2/axis", "op": "Const", "attr": {"value": {"tensor": {"dtype": "DT_INT32", "tensorShape": {"dim": [{"size": "1"}]}}}, "dtype": {"type": "DT_INT32"}}}, {"name": "lstm_o/bidirectional_rnn/bw/concat", "op": "Const", "attr": {"value": {"tensor": {"dtype": "DT_INT32", "tensorShape": {"dim": [{"size": "3"}]}}}, "dtype": {"type": "DT_INT32"}}}, {"name": "lstm_o/bidirectional_rnn/bw/bw/strided_slice_1/stack", "op": "Const", "attr": {"value": {"tensor": {"dtype": "DT_INT32", "tensorShape": {"dim": [{"size": "1"}]}}}, "dtype": {"type": "DT_INT32"}}}, {"name": "lstm_o/bidirectional_rnn/bw/bw/strided_slice_1/stack_1", "op": "Const", "attr": {"value": {"tensor": {"dtype": "DT_INT32", "tensorShape": {"dim": [{"size": "1"}]}}}, "dtype": {"type": "DT_INT32"}}}, {"name": "lstm_o/bidirectional_rnn/bw/bw/strided_slice_1/stack_2", "op": "Const", "attr": {"value": {"tensor": {"dtype": "DT_INT32", "tensorShape": {"dim": [{"size": "1"}]}}}, "dtype": {"type": "DT_INT32"}}}, {"name": "lstm_o/bidirectional_rnn/bw/bw/concat_1", "op": "Const", "attr": {"value": {"tensor": {"dtype": "DT_INT32", "tensorShape": {"dim": [{"size": "3"}]}}}, "dtype": {"type": "DT_INT32"}}}, {"name": "lstm_o/ReverseV2/axis", "op": "Const", "attr": {"value": {"tensor": {"dtype": "DT_INT32", "tensorShape": {"dim": [{"size": "1"}]}}}, "dtype": {"type": "DT_INT32"}}}, {"name": "lstm_o/concat/axis", "op": "Const", "attr": {"value": {"tensor": {"dtype": "DT_INT32", "tensorShape": {}}}, "dtype": {"type": "DT_INT32"}}}, {"name": "lstm_o/Reshape_1/shape/1", "op": "Const", "attr": {"value": {"tensor": {"dtype": "DT_INT32", "tensorShape": {}}}, "dtype": {"type": "DT_INT32"}}}, {"name": "lstm_o/weights", "op": "Const", "attr": {"value": {"tensor": {"dtype": "DT_FLOAT", "tensorShape": {"dim": [{"size": "256"}, {"size": "512"}]}}}, "dtype": {"type": "DT_FLOAT"}}}, {"name": "lstm_o/biases", "op": "Const", "attr": {"value": {"tensor": {"dtype": "DT_FLOAT", "tensorShape": {"dim": [{"size": "512"}]}}}, "dtype": {"type": "DT_FLOAT"}}}, {"name": "lstm_o/strided_slice/stack", "op": "Const", "attr": {"value": {"tensor": {"dtype": "DT_INT32", "tensorShape": {"dim": [{"size": "1"}]}}}, "dtype": {"type": "DT_INT32"}}}, {"name": "lstm_o/strided_slice/stack_1", "op": "Const", "attr": {"value": {"tensor": {"dtype": "DT_INT32", "tensorShape": {"dim": [{"size": "1"}]}}}, "dtype": {"type": "DT_INT32"}}}, {"name": "lstm_o/strided_slice/stack_2", "op": "Const", "attr": {"value": {"tensor": {"dtype": "DT_INT32", "tensorShape": {"dim": [{"size": "1"}]}}}, "dtype": {"type": "DT_INT32"}}}, {"name": "lstm_o/strided_slice_1/stack", "op": "Const", "attr": {"value": {"tensor": {"dtype": "DT_INT32", "tensorShape": {"dim": [{"size": "1"}]}}}, "dtype": {"type": "DT_INT32"}}}, {"name": "lstm_o/strided_slice_1/stack_1", "op": "Const", "attr": {"value": {"tensor": {"dtype": "DT_INT32", "tensorShape": {"dim": [{"size": "1"}]}}}, "dtype": {"type": "DT_INT32"}}}, {"name": "lstm_o/strided_slice_1/stack_2", "op": "Const", "attr": {"value": {"tensor": {"dtype": "DT_INT32", "tensorShape": {"dim": [{"size": "1"}]}}}, "dtype": {"type": "DT_INT32"}}}, {"name": "Placeholder", "op": "Placeholder", "attr": {"shape": {"shape": {"dim": [{"size": "-1"}, {"size": "-1"}, {"size": "-1"}, {"size": "3"}]}}, "dtype": {"type": "DT_FLOAT"}}}, {"name": "conv1_1/weights", "op": "Const", "attr": {"value": {"tensor": {"dtype": "DT_FLOAT", "tensorShape": {"dim": [{"size": "3"}, {"size": "3"}, {"size": "3"}, {"size": "64"}]}}}, "dtype": {"type": "DT_FLOAT"}}}, {"name": "conv1_1/biases", "op": "Const", "attr": {"value": {"tensor": {"dtype": "DT_FLOAT", "tensorShape": {"dim": [{"size": "64"}]}}}, "dtype": {"type": "DT_FLOAT"}}}, {"name": "conv1_2/weights", "op": "Const", "attr": {"value": {"tensor": {"dtype": "DT_FLOAT", "tensorShape": {"dim": [{"size": "3"}, {"size": "3"}, {"size": "64"}, {"size": "64"}]}}}, "dtype": {"type": "DT_FLOAT"}}}, {"name": "conv1_2/biases", "op": "Const", "attr": {"value": {"tensor": {"dtype": "DT_FLOAT", "tensorShape": {"dim": [{"size": "64"}]}}}, "dtype": {"type": "DT_FLOAT"}}}, {"name": "conv2_1/weights", "op": "Const", "attr": {"value": {"tensor": {"dtype": "DT_FLOAT", "tensorShape": {"dim": [{"size": "3"}, {"size": "3"}, {"size": "64"}, {"size": "128"}]}}}, "dtype": {"type": "DT_FLOAT"}}}, {"name": "conv2_1/biases", "op": "Const", "attr": {"value": {"tensor": {"dtype": "DT_FLOAT", "tensorShape": {"dim": [{"size": "128"}]}}}, "dtype": {"type": "DT_FLOAT"}}}, {"name": "conv2_2/weights", "op": "Const", "attr": {"value": {"tensor": {"dtype": "DT_FLOAT", "tensorShape": {"dim": [{"size": "3"}, {"size": "3"}, {"size": "128"}, {"size": "128"}]}}}, "dtype": {"type": "DT_FLOAT"}}}, {"name": "conv2_2/biases", "op": "Const", "attr": {"value": {"tensor": {"dtype": "DT_FLOAT", "tensorShape": {"dim": [{"size": "128"}]}}}, "dtype": {"type": "DT_FLOAT"}}}, {"name": "conv3_1/weights", "op": "Const", "attr": {"value": {"tensor": {"dtype": "DT_FLOAT", "tensorShape": {"dim": [{"size": "3"}, {"size": "3"}, {"size": "128"}, {"size": "256"}]}}}, "dtype": {"type": "DT_FLOAT"}}}, {"name": "conv3_1/biases", "op": "Const", "attr": {"value": {"tensor": {"dtype": "DT_FLOAT", "tensorShape": {"dim": [{"size": "256"}]}}}, "dtype": {"type": "DT_FLOAT"}}}, {"name": "conv3_2/weights", "op": "Const", "attr": {"value": {"tensor": {"dtype": "DT_FLOAT", "tensorShape": {"dim": [{"size": "3"}, {"size": "3"}, {"size": "256"}, {"size": "256"}]}}}, "dtype": {"type": "DT_FLOAT"}}}, {"name": "conv3_2/biases", "op": "Const", "attr": {"value": {"tensor": {"dtype": "DT_FLOAT", "tensorShape": {"dim": [{"size": "256"}]}}}, "dtype": {"type": "DT_FLOAT"}}}, {"name": "conv3_3/weights", "op": "Const", "attr": {"value": {"tensor": {"dtype": "DT_FLOAT", "tensorShape": {"dim": [{"size": "3"}, {"size": "3"}, {"size": "256"}, {"size": "256"}]}}}, "dtype": {"type": "DT_FLOAT"}}}, {"name": "conv3_3/biases", "op": "Const", "attr": {"value": {"tensor": {"dtype": "DT_FLOAT", "tensorShape": {"dim": [{"size": "256"}]}}}, "dtype": {"type": "DT_FLOAT"}}}, {"name": "conv4_1/weights", "op": "Const", "attr": {"value": {"tensor": {"dtype": "DT_FLOAT", "tensorShape": {"dim": [{"size": "3"}, {"size": "3"}, {"size": "256"}, {"size": "512"}]}}}, "dtype": {"type": "DT_FLOAT"}}}, {"name": "conv4_1/biases", "op": "Const", "attr": {"value": {"tensor": {"dtype": "DT_FLOAT", "tensorShape": {"dim": [{"size": "512"}]}}}, "dtype": {"type": "DT_FLOAT"}}}, {"name": "conv4_2/weights", "op": "Const", "attr": {"value": {"tensor": {"dtype": "DT_FLOAT", "tensorShape": {"dim": [{"size": "3"}, {"size": "3"}, {"size": "512"}, {"size": "512"}]}}}, "dtype": {"type": "DT_FLOAT"}}}, {"name": "conv4_2/biases", "op": "Const", "attr": {"value": {"tensor": {"dtype": "DT_FLOAT", "tensorShape": {"dim": [{"size": "512"}]}}}, "dtype": {"type": "DT_FLOAT"}}}, {"name": "conv4_3/weights", "op": "Const", "attr": {"value": {"tensor": {"dtype": "DT_FLOAT", "tensorShape": {"dim": [{"size": "3"}, {"size": "3"}, {"size": "512"}, {"size": "512"}]}}}, "dtype": {"type": "DT_FLOAT"}}}, {"name": "rpn_bbox_pred/strided_slice_2/stack", "op": "Const", "attr": {"value": {"tensor": {"dtype": "DT_INT32", "tensorShape": {"dim": [{"size": "1"}]}}}, "dtype": {"type": "DT_INT32"}}}, {"name": "conv4_3/biases", "op": "Const", "attr": {"value": {"tensor": {"dtype": "DT_FLOAT", "tensorShape": {"dim": [{"size": "512"}]}}}, "dtype": {"type": "DT_FLOAT"}}}, {"name": "rpn_bbox_pred/strided_slice_2/stack_1", "op": "Const", "attr": {"value": {"tensor": {"dtype": "DT_INT32", "tensorShape": {"dim": [{"size": "1"}]}}}, "dtype": {"type": "DT_INT32"}}}, {"name": "conv5_1/weights", "op": "Const", "attr": {"value": {"tensor": {"dtype": "DT_FLOAT", "tensorShape": {"dim": [{"size": "3"}, {"size": "3"}, {"size": "512"}, {"size": "512"}]}}}, "dtype": {"type": "DT_FLOAT"}}}, {"name": "rpn_bbox_pred/strided_slice_2/stack_2", "op": "Const", "attr": {"value": {"tensor": {"dtype": "DT_INT32", "tensorShape": {"dim": [{"size": "1"}]}}}, "dtype": {"type": "DT_INT32"}}}, {"name": "conv5_1/biases", "op": "Const", "attr": {"value": {"tensor": {"dtype": "DT_FLOAT", "tensorShape": {"dim": [{"size": "512"}]}}}, "dtype": {"type": "DT_FLOAT"}}}, {"name": "conv5_2/weights", "op": "Const", "attr": {"value": {"tensor": {"dtype": "DT_FLOAT", "tensorShape": {"dim": [{"size": "3"}, {"size": "3"}, {"size": "512"}, {"size": "512"}]}}}, "dtype": {"type": "DT_FLOAT"}}}, {"name": "conv5_2/biases", "op": "Const", "attr": {"value": {"tensor": {"dtype": "DT_FLOAT", "tensorShape": {"dim": [{"size": "512"}]}}}, "dtype": {"type": "DT_FLOAT"}}}, {"name": "conv5_3/weights", "op": "Const", "attr": {"value": {"tensor": {"dtype": "DT_FLOAT", "tensorShape": {"dim": [{"size": "3"}, {"size": "3"}, {"size": "512"}, {"size": "512"}]}}}, "dtype": {"type": "DT_FLOAT"}}}, {"name": "conv5_3/biases", "op": "Const", "attr": {"value": {"tensor": {"dtype": "DT_FLOAT", "tensorShape": {"dim": [{"size": "512"}]}}}, "dtype": {"type": "DT_FLOAT"}}}, {"name": "rpn_conv/3x3/weights", "op": "Const", "attr": {"value": {"tensor": {"dtype": "DT_FLOAT", "tensorShape": {"dim": [{"size": "3"}, {"size": "3"}, {"size": "512"}, {"size": "512"}]}}}, "dtype": {"type": "DT_FLOAT"}}}, {"name": "rpn_conv/3x3/biases", "op": "Const", "attr": {"value": {"tensor": {"dtype": "DT_FLOAT", "tensorShape": {"dim": [{"size": "512"}]}}}, "dtype": {"type": "DT_FLOAT"}}}, {"name": "rpn_bbox_pred/Reshape_1/shape/3", "op": "Const", "attr": {"value": {"tensor": {"dtype": "DT_INT32", "tensorShape": {}}}, "dtype": {"type": "DT_INT32"}}}, {"name": "lstm_o/strided_slice_2/stack", "op": "Const", "attr": {"value": {"tensor": {"dtype": "DT_INT32", "tensorShape": {"dim": [{"size": "1"}]}}}, "dtype": {"type": "DT_INT32"}}}, {"name": "lstm_o/strided_slice_2/stack_1", "op": "Const", "attr": {"value": {"tensor": {"dtype": "DT_INT32", "tensorShape": {"dim": [{"size": "1"}]}}}, "dtype": {"type": "DT_INT32"}}}, {"name": "lstm_o/strided_slice_2/stack_2", "op": "Const", "attr": {"value": {"tensor": {"dtype": "DT_INT32", "tensorShape": {"dim": [{"size": "1"}]}}}, "dtype": {"type": "DT_INT32"}}}, {"name": "lstm_o/Reshape_2/shape/3", "op": "Const", "attr": {"value": {"tensor": {"dtype": "DT_INT32", "tensorShape": {}}}, "dtype": {"type": "DT_INT32"}}}, {"name": "lstm_o/bidirectional_rnn/fw/fw/while/fw/lstm_cell/MatMul/Enter", "op": "Enter", "input": ["lstm_o/bidirectional_rnn/fw/lstm_cell/kernel"], "attr": {"T": {"type": "DT_FLOAT"}, "is_constant": {"b": true}, "parallel_iterations": {"i": "32"}, "frame_name": {"s": "bHN0bV9vL2JpZGlyZWN0aW9uYWxfcm5uL2Z3L2Z3L3doaWxlL3doaWxlX2NvbnRleHQ="}}}, {"name": "lstm_o/bidirectional_rnn/fw/fw/while/fw/lstm_cell/BiasAdd/Enter", "op": "Enter", "input": ["lstm_o/bidirectional_rnn/fw/lstm_cell/bias"], "attr": {"T": {"type": "DT_FLOAT"}, "is_constant": {"b": true}, "parallel_iterations": {"i": "32"}, "frame_name": {"s": "bHN0bV9vL2JpZGlyZWN0aW9uYWxfcm5uL2Z3L2Z3L3doaWxlL3doaWxlX2NvbnRleHQ="}}}, {"name": "lstm_o/bidirectional_rnn/fw/fw/while/Enter", "op": "Enter", "input": ["lstm_o/bidirectional_rnn/fw/fw/time"], "attr": {"T": {"type": "DT_INT32"}, "is_constant": {"b": false}, "parallel_iterations": {"i": "32"}, "frame_name": {"s": "bHN0bV9vL2JpZGlyZWN0aW9uYWxfcm5uL2Z3L2Z3L3doaWxlL3doaWxlX2NvbnRleHQ="}}}, {"name": "lstm_o/bidirectional_rnn/bw/bw/while/bw/lstm_cell/MatMul/Enter", "op": "Enter", "input": ["lstm_o/bidirectional_rnn/bw/lstm_cell/kernel"], "attr": {"T": {"type": "DT_FLOAT"}, "is_constant": {"b": true}, "parallel_iterations": {"i": "32"}, "frame_name": {"s": "bHN0bV9vL2JpZGlyZWN0aW9uYWxfcm5uL2J3L2J3L3doaWxlL3doaWxlX2NvbnRleHQ="}}}, {"name": "lstm_o/bidirectional_rnn/bw/bw/while/bw/lstm_cell/BiasAdd/Enter", "op": "Enter", "input": ["lstm_o/bidirectional_rnn/bw/lstm_cell/bias"], "attr": {"T": {"type": "DT_FLOAT"}, "is_constant": {"b": true}, "parallel_iterations": {"i": "32"}, "frame_name": {"s": "bHN0bV9vL2JpZGlyZWN0aW9uYWxfcm5uL2J3L2J3L3doaWxlL3doaWxlX2NvbnRleHQ="}}}, {"name": "lstm_o/bidirectional_rnn/bw/bw/while/Enter", "op": "Enter", "input": ["lstm_o/bidirectional_rnn/bw/bw/time"], "attr": {"T": {"type": "DT_INT32"}, "is_constant": {"b": false}, "parallel_iterations": {"i": "32"}, "frame_name": {"s": "bHN0bV9vL2JpZGlyZWN0aW9uYWxfcm5uL2J3L2J3L3doaWxlL3doaWxlX2NvbnRleHQ="}}}, {"name": "conv1_1/conv1_1", "op": "_FusedConv2D", "input": ["Placeholder", "conv1_1/weights", "conv1_1/biases"], "device": "/device:CPU:0", "attr": {"dilations": {"list": {"i": ["1", "1", "1", "1"]}}, "T": {"type": "DT_FLOAT"}, "data_format": {"s": "TkhXQw=="}, "strides": {"list": {"i": ["1", "1", "1", "1"]}}, "explicit_paddings": {"list": {}}, "use_cudnn_on_gpu": {"b": true}, "num_args": {"i": "1"}, "epsilon": {"f": 0.0}, "padding": {"s": "U0FNRQ=="}, "fused_ops": {"list": {"s": ["Qmlhc0FkZA==", "UmVsdQ=="]}}}}, {"name": "ConstantFolding/lstm_o/bidirectional_rnn/fw/lstm_cell/kernel_enter", "op": "Const", "input": ["^lstm_o/bidirectional_rnn/fw/fw/while/fw/lstm_cell/MatMul/Enter"], "attr": {"value": {"tensor": {"dtype": "DT_FLOAT", "tensorShape": {"dim": [{"size": "640"}, {"size": "512"}]}}}, "dtype": {"type": "DT_FLOAT"}}}, {"name": "ConstantFolding/lstm_o/bidirectional_rnn/fw/lstm_cell/bias_enter", "op": "Const", "input": ["^lstm_o/bidirectional_rnn/fw/fw/while/fw/lstm_cell/BiasAdd/Enter"], "attr": {"value": {"tensor": {"dtype": "DT_FLOAT", "tensorShape": {"dim": [{"size": "512"}]}}}, "dtype": {"type": "DT_FLOAT"}}}, {"name": "lstm_o/bidirectional_rnn/fw/fw/while/Merge", "op": "Merge", "input": ["lstm_o/bidirectional_rnn/fw/fw/while/Enter", "lstm_o/bidirectional_rnn/fw/fw/while/NextIteration"], "attr": {"T": {"type": "DT_INT32"}, "N": {"i": "2"}}}, {"name": "ConstantFolding/lstm_o/bidirectional_rnn/bw/lstm_cell/kernel_enter", "op": "Const", "input": ["^lstm_o/bidirectional_rnn/bw/bw/while/bw/lstm_cell/MatMul/Enter"], "attr": {"value": {"tensor": {"dtype": "DT_FLOAT", "tensorShape": {"dim": [{"size": "640"}, {"size": "512"}]}}}, "dtype": {"type": "DT_FLOAT"}}}, {"name": "ConstantFolding/lstm_o/bidirectional_rnn/bw/lstm_cell/bias_enter", "op": "Const", "input": ["^lstm_o/bidirectional_rnn/bw/bw/while/bw/lstm_cell/BiasAdd/Enter"], "attr": {"value": {"tensor": {"dtype": "DT_FLOAT", "tensorShape": {"dim": [{"size": "512"}]}}}, "dtype": {"type": "DT_FLOAT"}}}, {"name": "lstm_o/bidirectional_rnn/bw/bw/while/Merge", "op": "Merge", "input": ["lstm_o/bidirectional_rnn/bw/bw/while/Enter", "lstm_o/bidirectional_rnn/bw/bw/while/NextIteration"], "attr": {"T": {"type": "DT_INT32"}, "N": {"i": "2"}}}, {"name": "conv1_2/conv1_2", "op": "_FusedConv2D", "input": ["conv1_1/conv1_1", "conv1_2/weights", "conv1_2/biases"], "device": "/device:CPU:0", "attr": {"dilations": {"list": {"i": ["1", "1", "1", "1"]}}, "T": {"type": "DT_FLOAT"}, "data_format": {"s": "TkhXQw=="}, "strides": {"list": {"i": ["1", "1", "1", "1"]}}, "explicit_paddings": {"list": {}}, "use_cudnn_on_gpu": {"b": true}, "num_args": {"i": "1"}, "epsilon": {"f": 0.0}, "padding": {"s": "U0FNRQ=="}, "fused_ops": {"list": {"s": ["Qmlhc0FkZA==", "UmVsdQ=="]}}}}, {"name": "pool1", "op": "MaxPool", "input": ["conv1_2/conv1_2"], "attr": {"T": {"type": "DT_FLOAT"}, "data_format": {"s": "TkhXQw=="}, "strides": {"list": {"i": ["1", "2", "2", "1"]}}, "explicit_paddings": {"list": {}}, "ksize": {"list": {"i": ["1", "2", "2", "1"]}}, "padding": {"s": "VkFMSUQ="}}}, {"name": "conv2_1/conv2_1", "op": "_FusedConv2D", "input": ["pool1", "conv2_1/weights", "conv2_1/biases"], "device": "/device:CPU:0", "attr": {"dilations": {"list": {"i": ["1", "1", "1", "1"]}}, "T": {"type": "DT_FLOAT"}, "data_format": {"s": "TkhXQw=="}, "strides": {"list": {"i": ["1", "1", "1", "1"]}}, "explicit_paddings": {"list": {}}, "use_cudnn_on_gpu": {"b": true}, "num_args": {"i": "1"}, "epsilon": {"f": 0.0}, "padding": {"s": "U0FNRQ=="}, "fused_ops": {"list": {"s": ["Qmlhc0FkZA==", "UmVsdQ=="]}}}}, {"name": "conv2_2/conv2_2", "op": "_FusedConv2D", "input": ["conv2_1/conv2_1", "conv2_2/weights", "conv2_2/biases"], "device": "/device:CPU:0", "attr": {"dilations": {"list": {"i": ["1", "1", "1", "1"]}}, "T": {"type": "DT_FLOAT"}, "data_format": {"s": "TkhXQw=="}, "strides": {"list": {"i": ["1", "1", "1", "1"]}}, "explicit_paddings": {"list": {}}, "use_cudnn_on_gpu": {"b": true}, "num_args": {"i": "1"}, "epsilon": {"f": 0.0}, "padding": {"s": "U0FNRQ=="}, "fused_ops": {"list": {"s": ["Qmlhc0FkZA==", "UmVsdQ=="]}}}}, {"name": "pool2", "op": "MaxPool", "input": ["conv2_2/conv2_2"], "attr": {"T": {"type": "DT_FLOAT"}, "data_format": {"s": "TkhXQw=="}, "strides": {"list": {"i": ["1", "2", "2", "1"]}}, "explicit_paddings": {"list": {}}, "ksize": {"list": {"i": ["1", "2", "2", "1"]}}, "padding": {"s": "VkFMSUQ="}}}, {"name": "conv3_1/conv3_1", "op": "_FusedConv2D", "input": ["pool2", "conv3_1/weights", "conv3_1/biases"], "device": "/device:CPU:0", "attr": {"dilations": {"list": {"i": ["1", "1", "1", "1"]}}, "T": {"type": "DT_FLOAT"}, "data_format": {"s": "TkhXQw=="}, "strides": {"list": {"i": ["1", "1", "1", "1"]}}, "explicit_paddings": {"list": {}}, "use_cudnn_on_gpu": {"b": true}, "num_args": {"i": "1"}, "epsilon": {"f": 0.0}, "padding": {"s": "U0FNRQ=="}, "fused_ops": {"list": {"s": ["Qmlhc0FkZA==", "UmVsdQ=="]}}}}, {"name": "conv3_2/conv3_2", "op": "_FusedConv2D", "input": ["conv3_1/conv3_1", "conv3_2/weights", "conv3_2/biases"], "device": "/device:CPU:0", "attr": {"dilations": {"list": {"i": ["1", "1", "1", "1"]}}, "T": {"type": "DT_FLOAT"}, "data_format": {"s": "TkhXQw=="}, "strides": {"list": {"i": ["1", "1", "1", "1"]}}, "explicit_paddings": {"list": {}}, "use_cudnn_on_gpu": {"b": true}, "num_args": {"i": "1"}, "epsilon": {"f": 0.0}, "padding": {"s": "U0FNRQ=="}, "fused_ops": {"list": {"s": ["Qmlhc0FkZA==", "UmVsdQ=="]}}}}, {"name": "conv3_3/conv3_3", "op": "_FusedConv2D", "input": ["conv3_2/conv3_2", "conv3_3/weights", "conv3_3/biases"], "device": "/device:CPU:0", "attr": {"dilations": {"list": {"i": ["1", "1", "1", "1"]}}, "T": {"type": "DT_FLOAT"}, "data_format": {"s": "TkhXQw=="}, "strides": {"list": {"i": ["1", "1", "1", "1"]}}, "explicit_paddings": {"list": {}}, "use_cudnn_on_gpu": {"b": true}, "num_args": {"i": "1"}, "epsilon": {"f": 0.0}, "padding": {"s": "U0FNRQ=="}, "fused_ops": {"list": {"s": ["Qmlhc0FkZA==", "UmVsdQ=="]}}}}, {"name": "pool3", "op": "MaxPool", "input": ["conv3_3/conv3_3"], "attr": {"T": {"type": "DT_FLOAT"}, "data_format": {"s": "TkhXQw=="}, "strides": {"list": {"i": ["1", "2", "2", "1"]}}, "explicit_paddings": {"list": {}}, "ksize": {"list": {"i": ["1", "2", "2", "1"]}}, "padding": {"s": "VkFMSUQ="}}}, {"name": "conv4_1/conv4_1", "op": "_FusedConv2D", "input": ["pool3", "conv4_1/weights", "conv4_1/biases"], "device": "/device:CPU:0", "attr": {"dilations": {"list": {"i": ["1", "1", "1", "1"]}}, "T": {"type": "DT_FLOAT"}, "data_format": {"s": "TkhXQw=="}, "strides": {"list": {"i": ["1", "1", "1", "1"]}}, "explicit_paddings": {"list": {}}, "use_cudnn_on_gpu": {"b": true}, "num_args": {"i": "1"}, "epsilon": {"f": 0.0}, "padding": {"s": "U0FNRQ=="}, "fused_ops": {"list": {"s": ["Qmlhc0FkZA==", "UmVsdQ=="]}}}}, {"name": "conv4_2/conv4_2", "op": "_FusedConv2D", "input": ["conv4_1/conv4_1", "conv4_2/weights", "conv4_2/biases"], "device": "/device:CPU:0", "attr": {"dilations": {"list": {"i": ["1", "1", "1", "1"]}}, "T": {"type": "DT_FLOAT"}, "data_format": {"s": "TkhXQw=="}, "strides": {"list": {"i": ["1", "1", "1", "1"]}}, "explicit_paddings": {"list": {}}, "use_cudnn_on_gpu": {"b": true}, "num_args": {"i": "1"}, "epsilon": {"f": 0.0}, "padding": {"s": "U0FNRQ=="}, "fused_ops": {"list": {"s": ["Qmlhc0FkZA==", "UmVsdQ=="]}}}}, {"name": "conv4_3/conv4_3", "op": "_FusedConv2D", "input": ["conv4_2/conv4_2", "conv4_3/weights", "conv4_3/biases"], "device": "/device:CPU:0", "attr": {"dilations": {"list": {"i": ["1", "1", "1", "1"]}}, "T": {"type": "DT_FLOAT"}, "data_format": {"s": "TkhXQw=="}, "strides": {"list": {"i": ["1", "1", "1", "1"]}}, "explicit_paddings": {"list": {}}, "use_cudnn_on_gpu": {"b": true}, "num_args": {"i": "1"}, "epsilon": {"f": 0.0}, "padding": {"s": "U0FNRQ=="}, "fused_ops": {"list": {"s": ["Qmlhc0FkZA==", "UmVsdQ=="]}}}}, {"name": "pool4", "op": "MaxPool", "input": ["conv4_3/conv4_3"], "attr": {"T": {"type": "DT_FLOAT"}, "data_format": {"s": "TkhXQw=="}, "strides": {"list": {"i": ["1", "2", "2", "1"]}}, "explicit_paddings": {"list": {}}, "ksize": {"list": {"i": ["1", "2", "2", "1"]}}, "padding": {"s": "VkFMSUQ="}}}, {"name": "conv5_1/conv5_1", "op": "_FusedConv2D", "input": ["pool4", "conv5_1/weights", "conv5_1/biases"], "device": "/device:CPU:0", "attr": {"dilations": {"list": {"i": ["1", "1", "1", "1"]}}, "T": {"type": "DT_FLOAT"}, "data_format": {"s": "TkhXQw=="}, "strides": {"list": {"i": ["1", "1", "1", "1"]}}, "explicit_paddings": {"list": {}}, "use_cudnn_on_gpu": {"b": true}, "num_args": {"i": "1"}, "epsilon": {"f": 0.0}, "padding": {"s": "U0FNRQ=="}, "fused_ops": {"list": {"s": ["Qmlhc0FkZA==", "UmVsdQ=="]}}}}, {"name": "conv5_2/conv5_2", "op": "_FusedConv2D", "input": ["conv5_1/conv5_1", "conv5_2/weights", "conv5_2/biases"], "device": "/device:CPU:0", "attr": {"dilations": {"list": {"i": ["1", "1", "1", "1"]}}, "T": {"type": "DT_FLOAT"}, "data_format": {"s": "TkhXQw=="}, "strides": {"list": {"i": ["1", "1", "1", "1"]}}, "explicit_paddings": {"list": {}}, "use_cudnn_on_gpu": {"b": true}, "num_args": {"i": "1"}, "epsilon": {"f": 0.0}, "padding": {"s": "U0FNRQ=="}, "fused_ops": {"list": {"s": ["Qmlhc0FkZA==", "UmVsdQ=="]}}}}, {"name": "conv5_3/conv5_3", "op": "_FusedConv2D", "input": ["conv5_2/conv5_2", "conv5_3/weights", "conv5_3/biases"], "device": "/device:CPU:0", "attr": {"dilations": {"list": {"i": ["1", "1", "1", "1"]}}, "T": {"type": "DT_FLOAT"}, "data_format": {"s": "TkhXQw=="}, "strides": {"list": {"i": ["1", "1", "1", "1"]}}, "explicit_paddings": {"list": {}}, "use_cudnn_on_gpu": {"b": true}, "num_args": {"i": "1"}, "epsilon": {"f": 0.0}, "padding": {"s": "U0FNRQ=="}, "fused_ops": {"list": {"s": ["Qmlhc0FkZA==", "UmVsdQ=="]}}}}, {"name": "rpn_conv/3x3/rpn_conv/3x3", "op": "_FusedConv2D", "input": ["conv5_3/conv5_3", "rpn_conv/3x3/weights", "rpn_conv/3x3/biases"], "device": "/device:CPU:0", "attr": {"dilations": {"list": {"i": ["1", "1", "1", "1"]}}, "T": {"type": "DT_FLOAT"}, "data_format": {"s": "TkhXQw=="}, "strides": {"list": {"i": ["1", "1", "1", "1"]}}, "explicit_paddings": {"list": {}}, "use_cudnn_on_gpu": {"b": true}, "num_args": {"i": "1"}, "epsilon": {"f": 0.0}, "padding": {"s": "U0FNRQ=="}, "fused_ops": {"list": {"s": ["Qmlhc0FkZA==", "UmVsdQ=="]}}}}, {"name": "lstm_o/Shape", "op": "Shape", "input": ["rpn_conv/3x3/rpn_conv/3x3"], "attr": {"T": {"type": "DT_FLOAT"}, "out_type": {"type": "DT_INT32"}}}, {"name": "lstm_o/strided_slice_3", "op": "StridedSlice", "input": ["lstm_o/Shape", "lstm_o/strided_slice_3/stack", "lstm_o/strided_slice_3/stack_1", "lstm_o/strided_slice_3/stack_2"], "attr": {"Index": {"type": "DT_INT32"}, "T": {"type": "DT_INT32"}, "shrink_axis_mask": {"i": "1"}, "begin_mask": {"i": "0"}, "ellipsis_mask": {"i": "0"}, "new_axis_mask": {"i": "0"}, "end_mask": {"i": "0"}}}, {"name": "lstm_o/strided_slice", "op": "StridedSlice", "input": ["lstm_o/Shape", "lstm_o/strided_slice/stack", "lstm_o/strided_slice/stack_1", "lstm_o/strided_slice/stack_2"], "attr": {"Index": {"type": "DT_INT32"}, "T": {"type": "DT_INT32"}, "shrink_axis_mask": {"i": "1"}, "begin_mask": {"i": "0"}, "ellipsis_mask": {"i": "0"}, "new_axis_mask": {"i": "0"}, "end_mask": {"i": "0"}}}, {"name": "lstm_o/strided_slice_1", "op": "StridedSlice", "input": ["lstm_o/Shape", "lstm_o/strided_slice_1/stack", "lstm_o/strided_slice_1/stack_1", "lstm_o/strided_slice_1/stack_2"], "attr": {"T": {"type": "DT_INT32"}, "Index": {"type": "DT_INT32"}, "shrink_axis_mask": {"i": "1"}, "begin_mask": {"i": "0"}, "ellipsis_mask": {"i": "0"}, "new_axis_mask": {"i": "0"}, "end_mask": {"i": "0"}}}, {"name": "lstm_o/strided_slice_2", "op": "StridedSlice", "input": ["lstm_o/Shape", "lstm_o/strided_slice_2/stack", "lstm_o/strided_slice_2/stack_1", "lstm_o/strided_slice_2/stack_2"], "attr": {"Index": {"type": "DT_INT32"}, "T": {"type": "DT_INT32"}, "shrink_axis_mask": {"i": "1"}, "begin_mask": {"i": "0"}, "ellipsis_mask": {"i": "0"}, "new_axis_mask": {"i": "0"}, "end_mask": {"i": "0"}}}, {"name": "lstm_o/mul", "op": "Mul", "input": ["lstm_o/strided_slice", "lstm_o/strided_slice_1"], "attr": {"T": {"type": "DT_INT32"}}}, {"name": "lstm_o/mul_1", "op": "Mul", "input": ["lstm_o/strided_slice", "lstm_o/strided_slice_1"], "attr": {"_grappler_ArithmeticOptimizer_MinimizeBroadcasts": {"b": true}, "T": {"type": "DT_INT32"}}}, {"name": "lstm_o/Reshape_2/shape", "op": "Pack", "input": ["lstm_o/strided_slice", "lstm_o/strided_slice_1", "lstm_o/strided_slice_2", "lstm_o/Reshape_2/shape/3"], "attr": {"T": {"type": "DT_INT32"}, "axis": {"i": "0"}, "N": {"i": "4"}}}, {"name": "lstm_o/Reshape/shape", "op": "Pack", "input": ["lstm_o/mul", "lstm_o/strided_slice_2", "lstm_o/strided_slice_3"], "attr": {"T": {"type": "DT_INT32"}, "axis": {"i": "0"}, "N": {"i": "3"}}}, {"name": "lstm_o/mul_2", "op": "Mul", "input": ["lstm_o/mul_1", "lstm_o/strided_slice_2"], "attr": {"_grappler_ArithmeticOptimizer_MinimizeBroadcasts": {"b": true}, "T": {"type": "DT_INT32"}}}, {"name": "lstm_o/Reshape", "op": "Reshape", "input": ["rpn_conv/3x3/rpn_conv/3x3", "lstm_o/Reshape/shape"], "attr": {"T": {"type": "DT_FLOAT"}, "Tshape": {"type": "DT_INT32"}}}, {"name": "lstm_o/Reshape_1/shape", "op": "Pack", "input": ["lstm_o/mul_2", "lstm_o/Reshape_1/shape/1"], "attr": {"T": {"type": "DT_INT32"}, "axis": {"i": "0"}, "N": {"i": "2"}}}, {"name": "lstm_o/bidirectional_rnn/fw/transpose", "op": "Transpose", "input": ["lstm_o/Reshape", "lstm_o/bidirectional_rnn/fw/concat"], "attr": {"Tperm": {"type": "DT_INT32"}, "T": {"type": "DT_FLOAT"}}}, {"name": "lstm_o/bidirectional_rnn/bw/ReverseV2", "op": "ReverseV2", "input": ["lstm_o/Reshape", "lstm_o/bidirectional_rnn/bw/ReverseV2/axis"], "attr": {"Tidx": {"type": "DT_INT32"}, "T": {"type": "DT_FLOAT"}}}, {"name": "lstm_o/bidirectional_rnn/fw/fw/TensorArrayUnstack/Shape", "op": "Shape", "input": ["lstm_o/bidirectional_rnn/fw/transpose"], "attr": {"T": {"type": "DT_FLOAT"}, "out_type": {"type": "DT_INT32"}}}, {"name": "lstm_o/bidirectional_rnn/fw/fw/Shape", "op": "Shape", "input": ["lstm_o/bidirectional_rnn/fw/transpose"], "attr": {"T": {"type": "DT_FLOAT"}, "out_type": {"type": "DT_INT32"}}}, {"name": "lstm_o/bidirectional_rnn/fw/fw/Shape_1", "op": "Shape", "input": ["lstm_o/bidirectional_rnn/fw/transpose"], "attr": {"T": {"type": "DT_FLOAT"}, "out_type": {"type": "DT_INT32"}}}, {"name": "lstm_o/bidirectional_rnn/bw/transpose", "op": "Transpose", "input": ["lstm_o/bidirectional_rnn/bw/ReverseV2", "lstm_o/bidirectional_rnn/bw/concat"], "attr": {"Tperm": {"type": "DT_INT32"}, "T": {"type": "DT_FLOAT"}}}, {"name": "lstm_o/bidirectional_rnn/fw/fw/TensorArrayUnstack/strided_slice", "op": "StridedSlice", "input": ["lstm_o/bidirectional_rnn/fw/fw/TensorArrayUnstack/Shape", "lstm_o/bidirectional_rnn/fw/fw/TensorArrayUnstack/strided_slice/stack", "lstm_o/bidirectional_rnn/fw/fw/TensorArrayUnstack/strided_slice/stack_1", "lstm_o/bidirectional_rnn/fw/fw/TensorArrayUnstack/strided_slice/stack_2"], "attr": {"T": {"type": "DT_INT32"}, "Index": {"type": "DT_INT32"}, "shrink_axis_mask": {"i": "1"}, "begin_mask": {"i": "0"}, "ellipsis_mask": {"i": "0"}, "new_axis_mask": {"i": "0"}, "end_mask": {"i": "0"}}}, {"name": "lstm_o/bidirectional_rnn/fw/fw/strided_slice", "op": "StridedSlice", "input": ["lstm_o/bidirectional_rnn/fw/fw/Shape", "lstm_o/bidirectional_rnn/fw/fw/strided_slice/stack", "lstm_o/bidirectional_rnn/fw/fw/strided_slice/stack_1", "lstm_o/bidirectional_rnn/fw/fw/strided_slice/stack_2"], "attr": {"Index": {"type": "DT_INT32"}, "T": {"type": "DT_INT32"}, "shrink_axis_mask": {"i": "1"}, "begin_mask": {"i": "0"}, "ellipsis_mask": {"i": "0"}, "new_axis_mask": {"i": "0"}, "end_mask": {"i": "0"}}}, {"name": "lstm_o/bidirectional_rnn/fw/fw/strided_slice_1", "op": "StridedSlice", "input": ["lstm_o/bidirectional_rnn/fw/fw/Shape_1", "lstm_o/bidirectional_rnn/fw/fw/strided_slice_1/stack", "lstm_o/bidirectional_rnn/fw/fw/strided_slice_1/stack_1", "lstm_o/bidirectional_rnn/fw/fw/strided_slice_1/stack_2"], "attr": {"Index": {"type": "DT_INT32"}, "T": {"type": "DT_INT32"}, "shrink_axis_mask": {"i": "1"}, "begin_mask": {"i": "0"}, "ellipsis_mask": {"i": "0"}, "new_axis_mask": {"i": "0"}, "end_mask": {"i": "0"}}}, {"name": "lstm_o/bidirectional_rnn/bw/bw/TensorArrayUnstack/Shape", "op": "Shape", "input": ["lstm_o/bidirectional_rnn/bw/transpose"], "attr": {"T": {"type": "DT_FLOAT"}, "out_type": {"type": "DT_INT32"}}}, {"name": "lstm_o/bidirectional_rnn/bw/bw/Shape", "op": "Shape", "input": ["lstm_o/bidirectional_rnn/bw/transpose"], "attr": {"T": {"type": "DT_FLOAT"}, "out_type": {"type": "DT_INT32"}}}, {"name": "lstm_o/bidirectional_rnn/bw/bw/Shape_1", "op": "Shape", "input": ["lstm_o/bidirectional_rnn/bw/transpose"], "attr": {"T": {"type": "DT_FLOAT"}, "out_type": {"type": "DT_INT32"}}}, {"name": "lstm_o/bidirectional_rnn/fw/fw/TensorArrayUnstack/range", "op": "Range", "input": ["lstm_o/bidirectional_rnn/fw/fw/TensorArrayUnstack/range/start", "lstm_o/bidirectional_rnn/fw/fw/TensorArrayUnstack/strided_slice", "lstm_o/bidirectional_rnn/fw/fw/TensorArrayUnstack/range/delta"], "attr": {"Tidx": {"type": "DT_INT32"}}}, {"name": "lstm_o/bidirectional_rnn/fw/fw/LSTMCellZeroState/ExpandDims", "op": "ExpandDims", "input": ["lstm_o/bidirectional_rnn/fw/fw/strided_slice", "lstm_o/bidirectional_rnn/fw/fw/LSTMCellZeroState/ExpandDims/dim"], "attr": {"Tdim": {"type": "DT_INT32"}, "T": {"type": "DT_INT32"}}}, {"name": "lstm_o/bidirectional_rnn/fw/fw/LSTMCellZeroState/ExpandDims_2", "op": "ExpandDims", "input": ["lstm_o/bidirectional_rnn/fw/fw/strided_slice", "lstm_o/bidirectional_rnn/fw/fw/LSTMCellZeroState/ExpandDims_2/dim"], "attr": {"Tdim": {"type": "DT_INT32"}, "T": {"type": "DT_INT32"}}}, {"name": "lstm_o/bidirectional_rnn/fw/fw/TensorArray", "op": "TensorArrayV3", "input": ["lstm_o/bidirectional_rnn/fw/fw/strided_slice_1"], "attr": {"element_shape": {"shape": {"unknownRank": true}}, "dynamic_size": {"b": false}, "clear_after_read": {"b": true}, "identical_element_shapes": {"b": false}, "tensor_array_name": {"s": "bHN0bV9vL2JpZGlyZWN0aW9uYWxfcm5uL2Z3L2Z3L2R5bmFtaWNfcm5uL291dHB1dF8w"}, "dtype": {"type": "DT_FLOAT"}}}, {"name": "lstm_o/bidirectional_rnn/fw/fw/TensorArray_1", "op": "TensorArrayV3", "input": ["lstm_o/bidirectional_rnn/fw/fw/strided_slice_1"], "attr": {"element_shape": {"shape": {"unknownRank": true}}, "dynamic_size": {"b": false}, "clear_after_read": {"b": true}, "identical_element_shapes": {"b": false}, "tensor_array_name": {"s": "bHN0bV9vL2JpZGlyZWN0aW9uYWxfcm5uL2Z3L2Z3L2R5bmFtaWNfcm5uL2lucHV0XzA="}, "dtype": {"type": "DT_FLOAT"}}}, {"name": "lstm_o/bidirectional_rnn/fw/fw/while/Less/Enter", "op": "Enter", "input": ["lstm_o/bidirectional_rnn/fw/fw/strided_slice_1"], "attr": {"T": {"type": "DT_INT32"}, "is_constant": {"b": true}, "parallel_iterations": {"i": "32"}, "frame_name": {"s": "bHN0bV9vL2JpZGlyZWN0aW9uYWxfcm5uL2Z3L2Z3L3doaWxlL3doaWxlX2NvbnRleHQ="}}}, {"name": "lstm_o/bidirectional_rnn/bw/bw/TensorArrayUnstack/strided_slice", "op": "StridedSlice", "input": ["lstm_o/bidirectional_rnn/bw/bw/TensorArrayUnstack/Shape", "lstm_o/bidirectional_rnn/bw/bw/TensorArrayUnstack/strided_slice/stack", "lstm_o/bidirectional_rnn/bw/bw/TensorArrayUnstack/strided_slice/stack_1", "lstm_o/bidirectional_rnn/bw/bw/TensorArrayUnstack/strided_slice/stack_2"], "attr": {"T": {"type": "DT_INT32"}, "Index": {"type": "DT_INT32"}, "shrink_axis_mask": {"i": "1"}, "ellipsis_mask": {"i": "0"}, "begin_mask": {"i": "0"}, "new_axis_mask": {"i": "0"}, "end_mask": {"i": "0"}}}, {"name": "lstm_o/bidirectional_rnn/bw/bw/strided_slice", "op": "StridedSlice", "input": ["lstm_o/bidirectional_rnn/bw/bw/Shape", "lstm_o/bidirectional_rnn/bw/bw/strided_slice/stack", "lstm_o/bidirectional_rnn/bw/bw/strided_slice/stack_1", "lstm_o/bidirectional_rnn/bw/bw/strided_slice/stack_2"], "attr": {"T": {"type": "DT_INT32"}, "Index": {"type": "DT_INT32"}, "shrink_axis_mask": {"i": "1"}, "begin_mask": {"i": "0"}, "ellipsis_mask": {"i": "0"}, "new_axis_mask": {"i": "0"}, "end_mask": {"i": "0"}}}, {"name": "lstm_o/bidirectional_rnn/bw/bw/strided_slice_1", "op": "StridedSlice", "input": ["lstm_o/bidirectional_rnn/bw/bw/Shape_1", "lstm_o/bidirectional_rnn/bw/bw/strided_slice_1/stack", "lstm_o/bidirectional_rnn/bw/bw/strided_slice_1/stack_1", "lstm_o/bidirectional_rnn/bw/bw/strided_slice_1/stack_2"], "attr": {"Index": {"type": "DT_INT32"}, "T": {"type": "DT_INT32"}, "shrink_axis_mask": {"i": "1"}, "ellipsis_mask": {"i": "0"}, "begin_mask": {"i": "0"}, "new_axis_mask": {"i": "0"}, "end_mask": {"i": "0"}}}, {"name": "lstm_o/bidirectional_rnn/fw/fw/LSTMCellZeroState/concat", "op": "ConcatV2", "input": ["lstm_o/bidirectional_rnn/fw/fw/LSTMCellZeroState/ExpandDims", "lstm_o/bidirectional_rnn/fw/fw/LSTMCellZeroState/Const", "lstm_o/bidirectional_rnn/fw/fw/LSTMCellZeroState/concat/axis"], "attr": {"Tidx": {"type": "DT_INT32"}, "T": {"type": "DT_INT32"}, "N": {"i": "2"}}}, {"name": "lstm_o/bidirectional_rnn/fw/fw/LSTMCellZeroState/concat_1", "op": "ConcatV2", "input": ["lstm_o/bidirectional_rnn/fw/fw/LSTMCellZeroState/ExpandDims_2", "lstm_o/bidirectional_rnn/fw/fw/LSTMCellZeroState/Const_2", "lstm_o/bidirectional_rnn/fw/fw/LSTMCellZeroState/concat_1/axis"], "attr": {"Tidx": {"type": "DT_INT32"}, "T": {"type": "DT_INT32"}, "N": {"i": "2"}}}, {"name": "lstm_o/bidirectional_rnn/fw/fw/while/TensorArrayWrite/TensorArrayWriteV3/Enter", "op": "Enter", "input": ["lstm_o/bidirectional_rnn/fw/fw/TensorArray"], "attr": {"T": {"type": "DT_RESOURCE"}, "is_constant": {"b": true}, "parallel_iterations": {"i": "32"}, "frame_name": {"s": "bHN0bV9vL2JpZGlyZWN0aW9uYWxfcm5uL2Z3L2Z3L3doaWxlL3doaWxlX2NvbnRleHQ="}}}, {"name": "lstm_o/bidirectional_rnn/fw/fw/while/Enter_1", "op": "Enter", "input": ["lstm_o/bidirectional_rnn/fw/fw/TensorArray:1"], "attr": {"T": {"type": "DT_FLOAT"}, "is_constant": {"b": false}, "parallel_iterations": {"i": "32"}, "frame_name": {"s": "bHN0bV9vL2JpZGlyZWN0aW9uYWxfcm5uL2Z3L2Z3L3doaWxlL3doaWxlX2NvbnRleHQ="}}}, {"name": "lstm_o/bidirectional_rnn/fw/fw/while/TensorArrayReadV3/Enter", "op": "Enter", "input": ["lstm_o/bidirectional_rnn/fw/fw/TensorArray_1"], "attr": {"T": {"type": "DT_RESOURCE"}, "is_constant": {"b": true}, "parallel_iterations": {"i": "32"}, "frame_name": {"s": "bHN0bV9vL2JpZGlyZWN0aW9uYWxfcm5uL2Z3L2Z3L3doaWxlL3doaWxlX2NvbnRleHQ="}}}, {"name": "lstm_o/bidirectional_rnn/fw/fw/TensorArrayUnstack/TensorArrayScatter/TensorArrayScatterV3", "op": "TensorArrayScatterV3", "input": ["lstm_o/bidirectional_rnn/fw/fw/TensorArray_1", "lstm_o/bidirectional_rnn/fw/fw/TensorArrayUnstack/range", "lstm_o/bidirectional_rnn/fw/transpose", "lstm_o/bidirectional_rnn/fw/fw/TensorArray_1:1"], "attr": {"T": {"type": "DT_FLOAT"}}}, {"name": "lstm_o/bidirectional_rnn/fw/fw/while/Less", "op": "Less", "input": ["lstm_o/bidirectional_rnn/fw/fw/while/Merge", "lstm_o/bidirectional_rnn/fw/fw/while/Less/Enter"], "attr": {"T": {"type": "DT_INT32"}}}, {"name": "lstm_o/bidirectional_rnn/bw/bw/TensorArrayUnstack/range", "op": "Range", "input": ["lstm_o/bidirectional_rnn/bw/bw/TensorArrayUnstack/range/start", "lstm_o/bidirectional_rnn/bw/bw/TensorArrayUnstack/strided_slice", "lstm_o/bidirectional_rnn/bw/bw/TensorArrayUnstack/range/delta"], "attr": {"Tidx": {"type": "DT_INT32"}}}, {"name": "lstm_o/bidirectional_rnn/bw/bw/LSTMCellZeroState/ExpandDims", "op": "ExpandDims", "input": ["lstm_o/bidirectional_rnn/bw/bw/strided_slice", "lstm_o/bidirectional_rnn/bw/bw/LSTMCellZeroState/ExpandDims/dim"], "attr": {"Tdim": {"type": "DT_INT32"}, "T": {"type": "DT_INT32"}}}, {"name": "lstm_o/bidirectional_rnn/bw/bw/LSTMCellZeroState/ExpandDims_2", "op": "ExpandDims", "input": ["lstm_o/bidirectional_rnn/bw/bw/strided_slice", "lstm_o/bidirectional_rnn/bw/bw/LSTMCellZeroState/ExpandDims_2/dim"], "attr": {"Tdim": {"type": "DT_INT32"}, "T": {"type": "DT_INT32"}}}, {"name": "lstm_o/bidirectional_rnn/bw/bw/TensorArray", "op": "TensorArrayV3", "input": ["lstm_o/bidirectional_rnn/bw/bw/strided_slice_1"], "attr": {"element_shape": {"shape": {"unknownRank": true}}, "dynamic_size": {"b": false}, "clear_after_read": {"b": true}, "identical_element_shapes": {"b": false}, "tensor_array_name": {"s": "bHN0bV9vL2JpZGlyZWN0aW9uYWxfcm5uL2J3L2J3L2R5bmFtaWNfcm5uL291dHB1dF8w"}, "dtype": {"type": "DT_FLOAT"}}}, {"name": "lstm_o/bidirectional_rnn/bw/bw/TensorArray_1", "op": "TensorArrayV3", "input": ["lstm_o/bidirectional_rnn/bw/bw/strided_slice_1"], "attr": {"element_shape": {"shape": {"unknownRank": true}}, "dynamic_size": {"b": false}, "clear_after_read": {"b": true}, "identical_element_shapes": {"b": false}, "tensor_array_name": {"s": "bHN0bV9vL2JpZGlyZWN0aW9uYWxfcm5uL2J3L2J3L2R5bmFtaWNfcm5uL2lucHV0XzA="}, "dtype": {"type": "DT_FLOAT"}}}, {"name": "lstm_o/bidirectional_rnn/bw/bw/while/Less/Enter", "op": "Enter", "input": ["lstm_o/bidirectional_rnn/bw/bw/strided_slice_1"], "attr": {"T": {"type": "DT_INT32"}, "is_constant": {"b": true}, "parallel_iterations": {"i": "32"}, "frame_name": {"s": "bHN0bV9vL2JpZGlyZWN0aW9uYWxfcm5uL2J3L2J3L3doaWxlL3doaWxlX2NvbnRleHQ="}}}, {"name": "lstm_o/bidirectional_rnn/fw/fw/LSTMCellZeroState/zeros", "op": "Fill", "input": ["lstm_o/bidirectional_rnn/fw/fw/LSTMCellZeroState/concat", "lstm_o/bidirectional_rnn/fw/fw/LSTMCellZeroState/zeros/Const"], "attr": {"T": {"type": "DT_FLOAT"}, "index_type": {"type": "DT_INT32"}}}, {"name": "lstm_o/bidirectional_rnn/fw/fw/LSTMCellZeroState/zeros_1", "op": "Fill", "input": ["lstm_o/bidirectional_rnn/fw/fw/LSTMCellZeroState/concat_1", "lstm_o/bidirectional_rnn/fw/fw/LSTMCellZeroState/zeros_1/Const"], "attr": {"T": {"type": "DT_FLOAT"}, "index_type": {"type": "DT_INT32"}}}, {"name": "lstm_o/bidirectional_rnn/fw/fw/while/Merge_1", "op": "Merge", "input": ["lstm_o/bidirectional_rnn/fw/fw/while/Enter_1", "lstm_o/bidirectional_rnn/fw/fw/while/NextIteration_1"], "attr": {"T": {"type": "DT_FLOAT"}, "N": {"i": "2"}}}, {"name": "lstm_o/bidirectional_rnn/fw/fw/while/TensorArrayReadV3/Enter_1", "op": "Enter", "input": ["lstm_o/bidirectional_rnn/fw/fw/TensorArrayUnstack/TensorArrayScatter/TensorArrayScatterV3"], "attr": {"T": {"type": "DT_FLOAT"}, "is_constant": {"b": true}, "parallel_iterations": {"i": "32"}, "frame_name": {"s": "bHN0bV9vL2JpZGlyZWN0aW9uYWxfcm5uL2Z3L2Z3L3doaWxlL3doaWxlX2NvbnRleHQ="}}}, {"name": "lstm_o/bidirectional_rnn/fw/fw/while/LoopCond", "op": "LoopCond", "input": ["lstm_o/bidirectional_rnn/fw/fw/while/Less"]}, {"name": "lstm_o/bidirectional_rnn/bw/bw/LSTMCellZeroState/concat", "op": "ConcatV2", "input": ["lstm_o/bidirectional_rnn/bw/bw/LSTMCellZeroState/ExpandDims", "lstm_o/bidirectional_rnn/bw/bw/LSTMCellZeroState/Const", "lstm_o/bidirectional_rnn/bw/bw/LSTMCellZeroState/concat/axis"], "attr": {"Tidx": {"type": "DT_INT32"}, "T": {"type": "DT_INT32"}, "N": {"i": "2"}}}, {"name": "lstm_o/bidirectional_rnn/bw/bw/LSTMCellZeroState/concat_1", "op": "ConcatV2", "input": ["lstm_o/bidirectional_rnn/bw/bw/LSTMCellZeroState/ExpandDims_2", "lstm_o/bidirectional_rnn/bw/bw/LSTMCellZeroState/Const_2", "lstm_o/bidirectional_rnn/bw/bw/LSTMCellZeroState/concat_1/axis"], "attr": {"Tidx": {"type": "DT_INT32"}, "T": {"type": "DT_INT32"}, "N": {"i": "2"}}}, {"name": "lstm_o/bidirectional_rnn/bw/bw/while/TensorArrayWrite/TensorArrayWriteV3/Enter", "op": "Enter", "input": ["lstm_o/bidirectional_rnn/bw/bw/TensorArray"], "attr": {"T": {"type": "DT_RESOURCE"}, "is_constant": {"b": true}, "parallel_iterations": {"i": "32"}, "frame_name": {"s": "bHN0bV9vL2JpZGlyZWN0aW9uYWxfcm5uL2J3L2J3L3doaWxlL3doaWxlX2NvbnRleHQ="}}}, {"name": "lstm_o/bidirectional_rnn/bw/bw/while/Enter_1", "op": "Enter", "input": ["lstm_o/bidirectional_rnn/bw/bw/TensorArray:1"], "attr": {"T": {"type": "DT_FLOAT"}, "is_constant": {"b": false}, "parallel_iterations": {"i": "32"}, "frame_name": {"s": "bHN0bV9vL2JpZGlyZWN0aW9uYWxfcm5uL2J3L2J3L3doaWxlL3doaWxlX2NvbnRleHQ="}}}, {"name": "lstm_o/bidirectional_rnn/bw/bw/while/TensorArrayReadV3/Enter", "op": "Enter", "input": ["lstm_o/bidirectional_rnn/bw/bw/TensorArray_1"], "attr": {"T": {"type": "DT_RESOURCE"}, "is_constant": {"b": true}, "parallel_iterations": {"i": "32"}, "frame_name": {"s": "bHN0bV9vL2JpZGlyZWN0aW9uYWxfcm5uL2J3L2J3L3doaWxlL3doaWxlX2NvbnRleHQ="}}}, {"name": "lstm_o/bidirectional_rnn/bw/bw/TensorArrayUnstack/TensorArrayScatter/TensorArrayScatterV3", "op": "TensorArrayScatterV3", "input": ["lstm_o/bidirectional_rnn/bw/bw/TensorArray_1", "lstm_o/bidirectional_rnn/bw/bw/TensorArrayUnstack/range", "lstm_o/bidirectional_rnn/bw/transpose", "lstm_o/bidirectional_rnn/bw/bw/TensorArray_1:1"], "attr": {"T": {"type": "DT_FLOAT"}}}, {"name": "lstm_o/bidirectional_rnn/bw/bw/while/Less", "op": "Less", "input": ["lstm_o/bidirectional_rnn/bw/bw/while/Merge", "lstm_o/bidirectional_rnn/bw/bw/while/Less/Enter"], "attr": {"T": {"type": "DT_INT32"}}}, {"name": "lstm_o/bidirectional_rnn/fw/fw/while/Enter_2", "op": "Enter", "input": ["lstm_o/bidirectional_rnn/fw/fw/LSTMCellZeroState/zeros"], "attr": {"T": {"type": "DT_FLOAT"}, "is_constant": {"b": false}, "parallel_iterations": {"i": "32"}, "frame_name": {"s": "bHN0bV9vL2JpZGlyZWN0aW9uYWxfcm5uL2Z3L2Z3L3doaWxlL3doaWxlX2NvbnRleHQ="}}}, {"name": "lstm_o/bidirectional_rnn/fw/fw/while/Enter_3", "op": "Enter", "input": ["lstm_o/bidirectional_rnn/fw/fw/LSTMCellZeroState/zeros_1"], "attr": {"T": {"type": "DT_FLOAT"}, "is_constant": {"b": false}, "parallel_iterations": {"i": "32"}, "frame_name": {"s": "bHN0bV9vL2JpZGlyZWN0aW9uYWxfcm5uL2Z3L2Z3L3doaWxlL3doaWxlX2NvbnRleHQ="}}}, {"name": "lstm_o/bidirectional_rnn/fw/fw/while/Switch", "op": "Switch", "input": ["lstm_o/bidirectional_rnn/fw/fw/while/Merge", "lstm_o/bidirectional_rnn/fw/fw/while/LoopCond"], "attr": {"T": {"type": "DT_INT32"}}}, {"name": "lstm_o/bidirectional_rnn/fw/fw/while/Switch_1", "op": "Switch", "input": ["lstm_o/bidirectional_rnn/fw/fw/while/Merge_1", "lstm_o/bidirectional_rnn/fw/fw/while/LoopCond"], "attr": {"T": {"type": "DT_FLOAT"}}}, {"name": "lstm_o/bidirectional_rnn/bw/bw/LSTMCellZeroState/zeros", "op": "Fill", "input": ["lstm_o/bidirectional_rnn/bw/bw/LSTMCellZeroState/concat", "lstm_o/bidirectional_rnn/bw/bw/LSTMCellZeroState/zeros/Const"], "attr": {"T": {"type": "DT_FLOAT"}, "index_type": {"type": "DT_INT32"}}}, {"name": "lstm_o/bidirectional_rnn/bw/bw/LSTMCellZeroState/zeros_1", "op": "Fill", "input": ["lstm_o/bidirectional_rnn/bw/bw/LSTMCellZeroState/concat_1", "lstm_o/bidirectional_rnn/bw/bw/LSTMCellZeroState/zeros_1/Const"], "attr": {"T": {"type": "DT_FLOAT"}, "index_type": {"type": "DT_INT32"}}}, {"name": "lstm_o/bidirectional_rnn/bw/bw/while/Merge_1", "op": "Merge", "input": ["lstm_o/bidirectional_rnn/bw/bw/while/Enter_1", "lstm_o/bidirectional_rnn/bw/bw/while/NextIteration_1"], "attr": {"T": {"type": "DT_FLOAT"}, "N": {"i": "2"}}}, {"name": "lstm_o/bidirectional_rnn/bw/bw/while/TensorArrayReadV3/Enter_1", "op": "Enter", "input": ["lstm_o/bidirectional_rnn/bw/bw/TensorArrayUnstack/TensorArrayScatter/TensorArrayScatterV3"], "attr": {"T": {"type": "DT_FLOAT"}, "is_constant": {"b": true}, "parallel_iterations": {"i": "32"}, "frame_name": {"s": "bHN0bV9vL2JpZGlyZWN0aW9uYWxfcm5uL2J3L2J3L3doaWxlL3doaWxlX2NvbnRleHQ="}}}, {"name": "lstm_o/bidirectional_rnn/bw/bw/while/LoopCond", "op": "LoopCond", "input": ["lstm_o/bidirectional_rnn/bw/bw/while/Less"]}, {"name": "lstm_o/bidirectional_rnn/fw/fw/while/Merge_2", "op": "Merge", "input": ["lstm_o/bidirectional_rnn/fw/fw/while/Enter_2", "lstm_o/bidirectional_rnn/fw/fw/while/NextIteration_2"], "attr": {"T": {"type": "DT_FLOAT"}, "N": {"i": "2"}}}, {"name": "lstm_o/bidirectional_rnn/fw/fw/while/Merge_3", "op": "Merge", "input": ["lstm_o/bidirectional_rnn/fw/fw/while/Enter_3", "lstm_o/bidirectional_rnn/fw/fw/while/NextIteration_3"], "attr": {"T": {"type": "DT_FLOAT"}, "N": {"i": "2"}}}, {"name": "lstm_o/bidirectional_rnn/fw/fw/while/Identity", "op": "Identity", "input": ["lstm_o/bidirectional_rnn/fw/fw/while/Switch:1"], "attr": {"T": {"type": "DT_INT32"}}}, {"name": "lstm_o/bidirectional_rnn/fw/fw/while/Exit_1", "op": "Exit", "input": ["lstm_o/bidirectional_rnn/fw/fw/while/Switch_1"], "attr": {"T": {"type": "DT_FLOAT"}}}, {"name": "lstm_o/bidirectional_rnn/bw/bw/while/Enter_2", "op": "Enter", "input": ["lstm_o/bidirectional_rnn/bw/bw/LSTMCellZeroState/zeros"], "attr": {"T": {"type": "DT_FLOAT"}, "is_constant": {"b": false}, "parallel_iterations": {"i": "32"}, "frame_name": {"s": "bHN0bV9vL2JpZGlyZWN0aW9uYWxfcm5uL2J3L2J3L3doaWxlL3doaWxlX2NvbnRleHQ="}}}, {"name": "lstm_o/bidirectional_rnn/bw/bw/while/Enter_3", "op": "Enter", "input": ["lstm_o/bidirectional_rnn/bw/bw/LSTMCellZeroState/zeros_1"], "attr": {"T": {"type": "DT_FLOAT"}, "is_constant": {"b": false}, "parallel_iterations": {"i": "32"}, "frame_name": {"s": "bHN0bV9vL2JpZGlyZWN0aW9uYWxfcm5uL2J3L2J3L3doaWxlL3doaWxlX2NvbnRleHQ="}}}, {"name": "lstm_o/bidirectional_rnn/bw/bw/while/Switch", "op": "Switch", "input": ["lstm_o/bidirectional_rnn/bw/bw/while/Merge", "lstm_o/bidirectional_rnn/bw/bw/while/LoopCond"], "attr": {"T": {"type": "DT_INT32"}}}, {"name": "lstm_o/bidirectional_rnn/bw/bw/while/Switch_1", "op": "Switch", "input": ["lstm_o/bidirectional_rnn/bw/bw/while/Merge_1", "lstm_o/bidirectional_rnn/bw/bw/while/LoopCond"], "attr": {"T": {"type": "DT_FLOAT"}}}, {"name": "lstm_o/bidirectional_rnn/fw/fw/while/Switch_2", "op": "Switch", "input": ["lstm_o/bidirectional_rnn/fw/fw/while/Merge_2", "lstm_o/bidirectional_rnn/fw/fw/while/LoopCond"], "attr": {"T": {"type": "DT_FLOAT"}}}, {"name": "lstm_o/bidirectional_rnn/fw/fw/while/Switch_3", "op": "Switch", "input": ["lstm_o/bidirectional_rnn/fw/fw/while/Merge_3", "lstm_o/bidirectional_rnn/fw/fw/while/LoopCond"], "attr": {"T": {"type": "DT_FLOAT"}}}, {"name": "lstm_o/bidirectional_rnn/fw/fw/while/fw/lstm_cell/add/y", "op": "Const", "input": ["^lstm_o/bidirectional_rnn/fw/fw/while/Identity"], "attr": {"value": {"tensor": {"dtype": "DT_FLOAT", "tensorShape": {}}}, "dtype": {"type": "DT_FLOAT"}}}, {"name": "lstm_o/bidirectional_rnn/fw/fw/while/fw/lstm_cell/split/split_dim", "op": "Const", "input": ["^lstm_o/bidirectional_rnn/fw/fw/while/Identity"], "attr": {"value": {"tensor": {"dtype": "DT_INT32", "tensorShape": {}}}, "dtype": {"type": "DT_INT32"}}}, {"name": "lstm_o/bidirectional_rnn/fw/fw/while/fw/lstm_cell/concat/axis", "op": "Const", "input": ["^lstm_o/bidirectional_rnn/fw/fw/while/Identity"], "attr": {"value": {"tensor": {"dtype": "DT_INT32", "tensorShape": {}}}, "dtype": {"type": "DT_INT32"}}}, {"name": "lstm_o/bidirectional_rnn/fw/fw/while/add/y", "op": "Const", "input": ["^lstm_o/bidirectional_rnn/fw/fw/while/Identity"], "attr": {"value": {"tensor": {"dtype": "DT_INT32", "tensorShape": {}}}, "dtype": {"type": "DT_INT32"}}}, {"name": "lstm_o/bidirectional_rnn/fw/fw/while/TensorArrayReadV3", "op": "TensorArrayReadV3", "input": ["lstm_o/bidirectional_rnn/fw/fw/while/TensorArrayReadV3/Enter", "lstm_o/bidirectional_rnn/fw/fw/while/Identity", "lstm_o/bidirectional_rnn/fw/fw/while/TensorArrayReadV3/Enter_1"], "attr": {"dtype": {"type": "DT_FLOAT"}}}, {"name": "lstm_o/bidirectional_rnn/fw/fw/TensorArrayStack/TensorArraySizeV3", "op": "TensorArraySizeV3", "input": ["lstm_o/bidirectional_rnn/fw/fw/TensorArray", "lstm_o/bidirectional_rnn/fw/fw/while/Exit_1"]}, {"name": "lstm_o/bidirectional_rnn/bw/bw/while/Merge_2", "op": "Merge", "input": ["lstm_o/bidirectional_rnn/bw/bw/while/Enter_2", "lstm_o/bidirectional_rnn/bw/bw/while/NextIteration_2"], "attr": {"T": {"type": "DT_FLOAT"}, "N": {"i": "2"}}}, {"name": "lstm_o/bidirectional_rnn/bw/bw/while/Merge_3", "op": "Merge", "input": ["lstm_o/bidirectional_rnn/bw/bw/while/Enter_3", "lstm_o/bidirectional_rnn/bw/bw/while/NextIteration_3"], "attr": {"T": {"type": "DT_FLOAT"}, "N": {"i": "2"}}}, {"name": "lstm_o/bidirectional_rnn/bw/bw/while/Identity", "op": "Identity", "input": ["lstm_o/bidirectional_rnn/bw/bw/while/Switch:1"], "attr": {"T": {"type": "DT_INT32"}}}, {"name": "lstm_o/bidirectional_rnn/bw/bw/while/Exit_1", "op": "Exit", "input": ["lstm_o/bidirectional_rnn/bw/bw/while/Switch_1"], "attr": {"T": {"type": "DT_FLOAT"}}}, {"name": "lstm_o/bidirectional_rnn/fw/fw/while/add", "op": "Add", "input": ["lstm_o/bidirectional_rnn/fw/fw/while/Identity", "lstm_o/bidirectional_rnn/fw/fw/while/add/y"], "attr": {"T": {"type": "DT_INT32"}}}, {"name": "lstm_o/bidirectional_rnn/fw/fw/while/fw/lstm_cell/concat", "op": "ConcatV2", "input": ["lstm_o/bidirectional_rnn/fw/fw/while/TensorArrayReadV3", "lstm_o/bidirectional_rnn/fw/fw/while/Switch_3:1", "lstm_o/bidirectional_rnn/fw/fw/while/fw/lstm_cell/concat/axis"], "attr": {"Tidx": {"type": "DT_INT32"}, "T": {"type": "DT_FLOAT"}, "N": {"i": "2"}}}, {"name": "lstm_o/bidirectional_rnn/fw/fw/TensorArrayStack/range", "op": "Range", "input": ["lstm_o/bidirectional_rnn/fw/fw/TensorArrayStack/range/start", "lstm_o/bidirectional_rnn/fw/fw/TensorArrayStack/TensorArraySizeV3", "lstm_o/bidirectional_rnn/fw/fw/TensorArrayStack/range/delta"], "attr": {"Tidx": {"type": "DT_INT32"}}}, {"name": "lstm_o/bidirectional_rnn/bw/bw/while/Switch_2", "op": "Switch", "input": ["lstm_o/bidirectional_rnn/bw/bw/while/Merge_2", "lstm_o/bidirectional_rnn/bw/bw/while/LoopCond"], "attr": {"T": {"type": "DT_FLOAT"}}}, {"name": "lstm_o/bidirectional_rnn/bw/bw/while/Switch_3", "op": "Switch", "input": ["lstm_o/bidirectional_rnn/bw/bw/while/Merge_3", "lstm_o/bidirectional_rnn/bw/bw/while/LoopCond"], "attr": {"T": {"type": "DT_FLOAT"}}}, {"name": "lstm_o/bidirectional_rnn/bw/bw/while/bw/lstm_cell/add/y", "op": "Const", "input": ["^lstm_o/bidirectional_rnn/bw/bw/while/Identity"], "attr": {"value": {"tensor": {"dtype": "DT_FLOAT", "tensorShape": {}}}, "dtype": {"type": "DT_FLOAT"}}}, {"name": "lstm_o/bidirectional_rnn/bw/bw/while/bw/lstm_cell/split/split_dim", "op": "Const", "input": ["^lstm_o/bidirectional_rnn/bw/bw/while/Identity"], "attr": {"value": {"tensor": {"dtype": "DT_INT32", "tensorShape": {}}}, "dtype": {"type": "DT_INT32"}}}, {"name": "lstm_o/bidirectional_rnn/bw/bw/while/bw/lstm_cell/concat/axis", "op": "Const", "input": ["^lstm_o/bidirectional_rnn/bw/bw/while/Identity"], "attr": {"value": {"tensor": {"dtype": "DT_INT32", "tensorShape": {}}}, "dtype": {"type": "DT_INT32"}}}, {"name": "lstm_o/bidirectional_rnn/bw/bw/while/add/y", "op": "Const", "input": ["^lstm_o/bidirectional_rnn/bw/bw/while/Identity"], "attr": {"value": {"tensor": {"dtype": "DT_INT32", "tensorShape": {}}}, "dtype": {"type": "DT_INT32"}}}, {"name": "lstm_o/bidirectional_rnn/bw/bw/while/TensorArrayReadV3", "op": "TensorArrayReadV3", "input": ["lstm_o/bidirectional_rnn/bw/bw/while/TensorArrayReadV3/Enter", "lstm_o/bidirectional_rnn/bw/bw/while/Identity", "lstm_o/bidirectional_rnn/bw/bw/while/TensorArrayReadV3/Enter_1"], "attr": {"dtype": {"type": "DT_FLOAT"}}}, {"name": "lstm_o/bidirectional_rnn/bw/bw/TensorArrayStack/TensorArraySizeV3", "op": "TensorArraySizeV3", "input": ["lstm_o/bidirectional_rnn/bw/bw/TensorArray", "lstm_o/bidirectional_rnn/bw/bw/while/Exit_1"]}, {"name": "lstm_o/bidirectional_rnn/fw/fw/while/NextIteration", "op": "NextIteration", "input": ["lstm_o/bidirectional_rnn/fw/fw/while/add"], "attr": {"T": {"type": "DT_INT32"}}}, {"name": "lstm_o/bidirectional_rnn/fw/fw/while/fw/lstm_cell/BiasAdd", "op": "_FusedMatMul", "input": ["lstm_o/bidirectional_rnn/fw/fw/while/fw/lstm_cell/concat", "ConstantFolding/lstm_o/bidirectional_rnn/fw/lstm_cell/kernel_enter", "ConstantFolding/lstm_o/bidirectional_rnn/fw/lstm_cell/bias_enter"], "device": "/device:CPU:0", "attr": {"transpose_b": {"b": false}, "T": {"type": "DT_FLOAT"}, "num_args": {"i": "1"}, "epsilon": {"f": 0.0}, "fused_ops": {"list": {"s": ["Qmlhc0FkZA=="]}}, "transpose_a": {"b": false}}}, {"name": "lstm_o/bidirectional_rnn/fw/fw/TensorArrayStack/TensorArrayGatherV3", "op": "TensorArrayGatherV3", "input": ["lstm_o/bidirectional_rnn/fw/fw/TensorArray", "lstm_o/bidirectional_rnn/fw/fw/TensorArrayStack/range", "lstm_o/bidirectional_rnn/fw/fw/while/Exit_1"], "attr": {"element_shape": {"shape": {"dim": [{"size": "-1"}, {"size": "128"}]}}, "dtype": {"type": "DT_FLOAT"}}}, {"name": "lstm_o/bidirectional_rnn/bw/bw/while/add", "op": "Add", "input": ["lstm_o/bidirectional_rnn/bw/bw/while/Identity", "lstm_o/bidirectional_rnn/bw/bw/while/add/y"], "attr": {"T": {"type": "DT_INT32"}}}, {"name": "lstm_o/bidirectional_rnn/bw/bw/while/bw/lstm_cell/concat", "op": "ConcatV2", "input": ["lstm_o/bidirectional_rnn/bw/bw/while/TensorArrayReadV3", "lstm_o/bidirectional_rnn/bw/bw/while/Switch_3:1", "lstm_o/bidirectional_rnn/bw/bw/while/bw/lstm_cell/concat/axis"], "attr": {"Tidx": {"type": "DT_INT32"}, "T": {"type": "DT_FLOAT"}, "N": {"i": "2"}}}, {"name": "lstm_o/bidirectional_rnn/bw/bw/TensorArrayStack/range", "op": "Range", "input": ["lstm_o/bidirectional_rnn/bw/bw/TensorArrayStack/range/start", "lstm_o/bidirectional_rnn/bw/bw/TensorArrayStack/TensorArraySizeV3", "lstm_o/bidirectional_rnn/bw/bw/TensorArrayStack/range/delta"], "attr": {"Tidx": {"type": "DT_INT32"}}}, {"name": "lstm_o/bidirectional_rnn/fw/fw/while/fw/lstm_cell/split", "op": "Split", "input": ["lstm_o/bidirectional_rnn/fw/fw/while/fw/lstm_cell/split/split_dim", "lstm_o/bidirectional_rnn/fw/fw/while/fw/lstm_cell/BiasAdd"], "attr": {"T": {"type": "DT_FLOAT"}, "num_split": {"i": "4"}}}, {"name": "lstm_o/bidirectional_rnn/fw/fw/transpose", "op": "Transpose", "input": ["lstm_o/bidirectional_rnn/fw/fw/TensorArrayStack/TensorArrayGatherV3", "lstm_o/bidirectional_rnn/fw/fw/concat_1"], "attr": {"Tperm": {"type": "DT_INT32"}, "T": {"type": "DT_FLOAT"}}}, {"name": "lstm_o/bidirectional_rnn/bw/bw/while/NextIteration", "op": "NextIteration", "input": ["lstm_o/bidirectional_rnn/bw/bw/while/add"], "attr": {"T": {"type": "DT_INT32"}}}, {"name": "lstm_o/bidirectional_rnn/bw/bw/while/bw/lstm_cell/BiasAdd", "op": "_FusedMatMul", "input": ["lstm_o/bidirectional_rnn/bw/bw/while/bw/lstm_cell/concat", "ConstantFolding/lstm_o/bidirectional_rnn/bw/lstm_cell/kernel_enter", "ConstantFolding/lstm_o/bidirectional_rnn/bw/lstm_cell/bias_enter"], "device": "/device:CPU:0", "attr": {"transpose_b": {"b": false}, "T": {"type": "DT_FLOAT"}, "num_args": {"i": "1"}, "epsilon": {"f": 0.0}, "fused_ops": {"list": {"s": ["Qmlhc0FkZA=="]}}, "transpose_a": {"b": false}}}, {"name": "lstm_o/bidirectional_rnn/bw/bw/TensorArrayStack/TensorArrayGatherV3", "op": "TensorArrayGatherV3", "input": ["lstm_o/bidirectional_rnn/bw/bw/TensorArray", "lstm_o/bidirectional_rnn/bw/bw/TensorArrayStack/range", "lstm_o/bidirectional_rnn/bw/bw/while/Exit_1"], "attr": {"element_shape": {"shape": {"dim": [{"size": "-1"}, {"size": "128"}]}}, "dtype": {"type": "DT_FLOAT"}}}, {"name": "lstm_o/bidirectional_rnn/fw/fw/while/fw/lstm_cell/Sigmoid_1", "op": "Sigmoid", "input": ["lstm_o/bidirectional_rnn/fw/fw/while/fw/lstm_cell/split"], "attr": {"T": {"type": "DT_FLOAT"}}}, {"name": "lstm_o/bidirectional_rnn/fw/fw/while/fw/lstm_cell/Tanh", "op": "Tanh", "input": ["lstm_o/bidirectional_rnn/fw/fw/while/fw/lstm_cell/split:1"], "attr": {"T": {"type": "DT_FLOAT"}}}, {"name": "lstm_o/bidirectional_rnn/fw/fw/while/fw/lstm_cell/add", "op": "Add", "input": ["lstm_o/bidirectional_rnn/fw/fw/while/fw/lstm_cell/split:2", "lstm_o/bidirectional_rnn/fw/fw/while/fw/lstm_cell/add/y"], "attr": {"T": {"type": "DT_FLOAT"}}}, {"name": "lstm_o/bidirectional_rnn/fw/fw/while/fw/lstm_cell/Sigmoid_2", "op": "Sigmoid", "input": ["lstm_o/bidirectional_rnn/fw/fw/while/fw/lstm_cell/split:3"], "attr": {"T": {"type": "DT_FLOAT"}}}, {"name": "lstm_o/bidirectional_rnn/bw/bw/while/bw/lstm_cell/split", "op": "Split", "input": ["lstm_o/bidirectional_rnn/bw/bw/while/bw/lstm_cell/split/split_dim", "lstm_o/bidirectional_rnn/bw/bw/while/bw/lstm_cell/BiasAdd"], "attr": {"T": {"type": "DT_FLOAT"}, "num_split": {"i": "4"}}}, {"name": "lstm_o/bidirectional_rnn/bw/bw/transpose", "op": "Transpose", "input": ["lstm_o/bidirectional_rnn/bw/bw/TensorArrayStack/TensorArrayGatherV3", "lstm_o/bidirectional_rnn/bw/bw/concat_1"], "attr": {"Tperm": {"type": "DT_INT32"}, "T": {"type": "DT_FLOAT"}}}, {"name": "lstm_o/bidirectional_rnn/fw/fw/while/fw/lstm_cell/mul_1", "op": "Mul", "input": ["lstm_o/bidirectional_rnn/fw/fw/while/fw/lstm_cell/Sigmoid_1", "lstm_o/bidirectional_rnn/fw/fw/while/fw/lstm_cell/Tanh"], "attr": {"T": {"type": "DT_FLOAT"}}}, {"name": "lstm_o/bidirectional_rnn/fw/fw/while/fw/lstm_cell/Sigmoid", "op": "Sigmoid", "input": ["lstm_o/bidirectional_rnn/fw/fw/while/fw/lstm_cell/add"], "attr": {"T": {"type": "DT_FLOAT"}}}, {"name": "lstm_o/bidirectional_rnn/bw/bw/while/bw/lstm_cell/Sigmoid_1", "op": "Sigmoid", "input": ["lstm_o/bidirectional_rnn/bw/bw/while/bw/lstm_cell/split"], "attr": {"T": {"type": "DT_FLOAT"}}}, {"name": "lstm_o/bidirectional_rnn/bw/bw/while/bw/lstm_cell/Tanh", "op": "Tanh", "input": ["lstm_o/bidirectional_rnn/bw/bw/while/bw/lstm_cell/split:1"], "attr": {"T": {"type": "DT_FLOAT"}}}, {"name": "lstm_o/bidirectional_rnn/bw/bw/while/bw/lstm_cell/add", "op": "Add", "input": ["lstm_o/bidirectional_rnn/bw/bw/while/bw/lstm_cell/split:2", "lstm_o/bidirectional_rnn/bw/bw/while/bw/lstm_cell/add/y"], "attr": {"T": {"type": "DT_FLOAT"}}}, {"name": "lstm_o/bidirectional_rnn/bw/bw/while/bw/lstm_cell/Sigmoid_2", "op": "Sigmoid", "input": ["lstm_o/bidirectional_rnn/bw/bw/while/bw/lstm_cell/split:3"], "attr": {"T": {"type": "DT_FLOAT"}}}, {"name": "lstm_o/ReverseV2", "op": "ReverseV2", "input": ["lstm_o/bidirectional_rnn/bw/bw/transpose", "lstm_o/ReverseV2/axis"], "attr": {"Tidx": {"type": "DT_INT32"}, "T": {"type": "DT_FLOAT"}}}, {"name": "lstm_o/bidirectional_rnn/fw/fw/while/fw/lstm_cell/mul", "op": "Mul", "input": ["lstm_o/bidirectional_rnn/fw/fw/while/fw/lstm_cell/Sigmoid", "lstm_o/bidirectional_rnn/fw/fw/while/Switch_2:1"], "attr": {"T": {"type": "DT_FLOAT"}}}, {"name": "lstm_o/bidirectional_rnn/bw/bw/while/bw/lstm_cell/mul_1", "op": "Mul", "input": ["lstm_o/bidirectional_rnn/bw/bw/while/bw/lstm_cell/Sigmoid_1", "lstm_o/bidirectional_rnn/bw/bw/while/bw/lstm_cell/Tanh"], "attr": {"T": {"type": "DT_FLOAT"}}}, {"name": "lstm_o/bidirectional_rnn/bw/bw/while/bw/lstm_cell/Sigmoid", "op": "Sigmoid", "input": ["lstm_o/bidirectional_rnn/bw/bw/while/bw/lstm_cell/add"], "attr": {"T": {"type": "DT_FLOAT"}}}, {"name": "lstm_o/concat", "op": "ConcatV2", "input": ["lstm_o/bidirectional_rnn/fw/fw/transpose", "lstm_o/ReverseV2", "lstm_o/concat/axis"], "attr": {"Tidx": {"type": "DT_INT32"}, "T": {"type": "DT_FLOAT"}, "N": {"i": "2"}}}, {"name": "lstm_o/bidirectional_rnn/fw/fw/while/fw/lstm_cell/add_1", "op": "Add", "input": ["lstm_o/bidirectional_rnn/fw/fw/while/fw/lstm_cell/mul", "lstm_o/bidirectional_rnn/fw/fw/while/fw/lstm_cell/mul_1"], "attr": {"T": {"type": "DT_FLOAT"}}}, {"name": "lstm_o/bidirectional_rnn/bw/bw/while/bw/lstm_cell/mul", "op": "Mul", "input": ["lstm_o/bidirectional_rnn/bw/bw/while/bw/lstm_cell/Sigmoid", "lstm_o/bidirectional_rnn/bw/bw/while/Switch_2:1"], "attr": {"T": {"type": "DT_FLOAT"}}}, {"name": "lstm_o/Reshape_1", "op": "Reshape", "input": ["lstm_o/concat", "lstm_o/Reshape_1/shape"], "attr": {"T": {"type": "DT_FLOAT"}, "Tshape": {"type": "DT_INT32"}}}, {"name": "lstm_o/bidirectional_rnn/fw/fw/while/NextIteration_2", "op": "NextIteration", "input": ["lstm_o/bidirectional_rnn/fw/fw/while/fw/lstm_cell/add_1"], "attr": {"T": {"type": "DT_FLOAT"}}}, {"name": "lstm_o/bidirectional_rnn/fw/fw/while/fw/lstm_cell/Tanh_1", "op": "Tanh", "input": ["lstm_o/bidirectional_rnn/fw/fw/while/fw/lstm_cell/add_1"], "attr": {"T": {"type": "DT_FLOAT"}}}, {"name": "lstm_o/bidirectional_rnn/bw/bw/while/bw/lstm_cell/add_1", "op": "Add", "input": ["lstm_o/bidirectional_rnn/bw/bw/while/bw/lstm_cell/mul", "lstm_o/bidirectional_rnn/bw/bw/while/bw/lstm_cell/mul_1"], "attr": {"T": {"type": "DT_FLOAT"}}}, {"name": "lstm_o/MatMul", "op": "MatMul", "input": ["lstm_o/Reshape_1", "lstm_o/weights"], "device": "/device:CPU:0", "attr": {"transpose_b": {"b": false}, "T": {"type": "DT_FLOAT"}, "transpose_a": {"b": false}}}, {"name": "lstm_o/bidirectional_rnn/fw/fw/while/fw/lstm_cell/mul_2", "op": "Mul", "input": ["lstm_o/bidirectional_rnn/fw/fw/while/fw/lstm_cell/Sigmoid_2", "lstm_o/bidirectional_rnn/fw/fw/while/fw/lstm_cell/Tanh_1"], "attr": {"T": {"type": "DT_FLOAT"}}}, {"name": "lstm_o/bidirectional_rnn/bw/bw/while/NextIteration_2", "op": "NextIteration", "input": ["lstm_o/bidirectional_rnn/bw/bw/while/bw/lstm_cell/add_1"], "attr": {"T": {"type": "DT_FLOAT"}}}, {"name": "lstm_o/bidirectional_rnn/bw/bw/while/bw/lstm_cell/Tanh_1", "op": "Tanh", "input": ["lstm_o/bidirectional_rnn/bw/bw/while/bw/lstm_cell/add_1"], "attr": {"T": {"type": "DT_FLOAT"}}}, {"name": "lstm_o/add", "op": "Add", "input": ["lstm_o/MatMul", "lstm_o/biases"], "attr": {"T": {"type": "DT_FLOAT"}}}, {"name": "lstm_o/bidirectional_rnn/fw/fw/while/NextIteration_3", "op": "NextIteration", "input": ["lstm_o/bidirectional_rnn/fw/fw/while/fw/lstm_cell/mul_2"], "attr": {"T": {"type": "DT_FLOAT"}}}, {"name": "lstm_o/bidirectional_rnn/fw/fw/while/TensorArrayWrite/TensorArrayWriteV3", "op": "TensorArrayWriteV3", "input": ["lstm_o/bidirectional_rnn/fw/fw/while/TensorArrayWrite/TensorArrayWriteV3/Enter", "lstm_o/bidirectional_rnn/fw/fw/while/Identity", "lstm_o/bidirectional_rnn/fw/fw/while/fw/lstm_cell/mul_2", "lstm_o/bidirectional_rnn/fw/fw/while/Switch_1:1"], "attr": {"T": {"type": "DT_FLOAT"}}}, {"name": "lstm_o/bidirectional_rnn/bw/bw/while/bw/lstm_cell/mul_2", "op": "Mul", "input": ["lstm_o/bidirectional_rnn/bw/bw/while/bw/lstm_cell/Sigmoid_2", "lstm_o/bidirectional_rnn/bw/bw/while/bw/lstm_cell/Tanh_1"], "attr": {"T": {"type": "DT_FLOAT"}}}, {"name": "lstm_o/Reshape_2", "op": "Reshape", "input": ["lstm_o/add", "lstm_o/Reshape_2/shape"], "attr": {"T": {"type": "DT_FLOAT"}, "Tshape": {"type": "DT_INT32"}}}, {"name": "lstm_o/bidirectional_rnn/fw/fw/while/NextIteration_1", "op": "NextIteration", "input": ["lstm_o/bidirectional_rnn/fw/fw/while/TensorArrayWrite/TensorArrayWriteV3"], "attr": {"T": {"type": "DT_FLOAT"}}}, {"name": "lstm_o/bidirectional_rnn/bw/bw/while/NextIteration_3", "op": "NextIteration", "input": ["lstm_o/bidirectional_rnn/bw/bw/while/bw/lstm_cell/mul_2"], "attr": {"T": {"type": "DT_FLOAT"}}}, {"name": "lstm_o/bidirectional_rnn/bw/bw/while/TensorArrayWrite/TensorArrayWriteV3", "op": "TensorArrayWriteV3", "input": ["lstm_o/bidirectional_rnn/bw/bw/while/TensorArrayWrite/TensorArrayWriteV3/Enter", "lstm_o/bidirectional_rnn/bw/bw/while/Identity", "lstm_o/bidirectional_rnn/bw/bw/while/bw/lstm_cell/mul_2", "lstm_o/bidirectional_rnn/bw/bw/while/Switch_1:1"], "attr": {"T": {"type": "DT_FLOAT"}}}, {"name": "rpn_bbox_pred/Shape", "op": "Shape", "input": ["lstm_o/Reshape_2"], "attr": {"T": {"type": "DT_FLOAT"}, "out_type": {"type": "DT_INT32"}}}, {"name": "rpn_cls_score/Shape", "op": "Shape", "input": ["lstm_o/Reshape_2"], "attr": {"T": {"type": "DT_FLOAT"}, "out_type": {"type": "DT_INT32"}}}, {"name": "lstm_o/bidirectional_rnn/bw/bw/while/NextIteration_1", "op": "NextIteration", "input": ["lstm_o/bidirectional_rnn/bw/bw/while/TensorArrayWrite/TensorArrayWriteV3"], "attr": {"T": {"type": "DT_FLOAT"}}}, {"name": "rpn_bbox_pred/strided_slice_3", "op": "StridedSlice", "input": ["rpn_bbox_pred/Shape", "rpn_bbox_pred/strided_slice_3/stack", "rpn_bbox_pred/strided_slice_3/stack_1", "rpn_bbox_pred/strided_slice_3/stack_2"], "attr": {"T": {"type": "DT_INT32"}, "Index": {"type": "DT_INT32"}, "shrink_axis_mask": {"i": "1"}, "begin_mask": {"i": "0"}, "ellipsis_mask": {"i": "0"}, "new_axis_mask": {"i": "0"}, "end_mask": {"i": "0"}}}, {"name": "rpn_bbox_pred/strided_slice", "op": "StridedSlice", "input": ["rpn_bbox_pred/Shape", "rpn_bbox_pred/strided_slice/stack", "rpn_bbox_pred/strided_slice/stack_1", "rpn_bbox_pred/strided_slice/stack_2"], "attr": {"T": {"type": "DT_INT32"}, "Index": {"type": "DT_INT32"}, "shrink_axis_mask": {"i": "1"}, "begin_mask": {"i": "0"}, "ellipsis_mask": {"i": "0"}, "new_axis_mask": {"i": "0"}, "end_mask": {"i": "0"}}}, {"name": "rpn_bbox_pred/strided_slice_1", "op": "StridedSlice", "input": ["rpn_bbox_pred/Shape", "rpn_bbox_pred/strided_slice_1/stack", "rpn_bbox_pred/strided_slice_1/stack_1", "rpn_bbox_pred/strided_slice_1/stack_2"], "attr": {"Index": {"type": "DT_INT32"}, "T": {"type": "DT_INT32"}, "shrink_axis_mask": {"i": "1"}, "begin_mask": {"i": "0"}, "ellipsis_mask": {"i": "0"}, "new_axis_mask": {"i": "0"}, "end_mask": {"i": "0"}}}, {"name": "rpn_bbox_pred/strided_slice_2", "op": "StridedSlice", "input": ["rpn_bbox_pred/Shape", "rpn_bbox_pred/strided_slice_2/stack", "rpn_bbox_pred/strided_slice_2/stack_1", "rpn_bbox_pred/strided_slice_2/stack_2"], "attr": {"T": {"type": "DT_INT32"}, "Index": {"type": "DT_INT32"}, "shrink_axis_mask": {"i": "1"}, "ellipsis_mask": {"i": "0"}, "begin_mask": {"i": "0"}, "new_axis_mask": {"i": "0"}, "end_mask": {"i": "0"}}}, {"name": "rpn_cls_score/strided_slice_3", "op": "StridedSlice", "input": ["rpn_cls_score/Shape", "rpn_cls_score/strided_slice_3/stack", "rpn_cls_score/strided_slice_3/stack_1", "rpn_cls_score/strided_slice_3/stack_2"], "attr": {"Index": {"type": "DT_INT32"}, "T": {"type": "DT_INT32"}, "shrink_axis_mask": {"i": "1"}, "begin_mask": {"i": "0"}, "ellipsis_mask": {"i": "0"}, "new_axis_mask": {"i": "0"}, "end_mask": {"i": "0"}}}, {"name": "rpn_cls_score/strided_slice", "op": "StridedSlice", "input": ["rpn_cls_score/Shape", "rpn_cls_score/strided_slice/stack", "rpn_cls_score/strided_slice/stack_1", "rpn_cls_score/strided_slice/stack_2"], "attr": {"T": {"type": "DT_INT32"}, "Index": {"type": "DT_INT32"}, "shrink_axis_mask": {"i": "1"}, "begin_mask": {"i": "0"}, "ellipsis_mask": {"i": "0"}, "new_axis_mask": {"i": "0"}, "end_mask": {"i": "0"}}}, {"name": "rpn_cls_score/strided_slice_1", "op": "StridedSlice", "input": ["rpn_cls_score/Shape", "rpn_cls_score/strided_slice_1/stack", "rpn_cls_score/strided_slice_1/stack_1", "rpn_cls_score/strided_slice_1/stack_2"], "attr": {"Index": {"type": "DT_INT32"}, "T": {"type": "DT_INT32"}, "shrink_axis_mask": {"i": "1"}, "begin_mask": {"i": "0"}, "ellipsis_mask": {"i": "0"}, "new_axis_mask": {"i": "0"}, "end_mask": {"i": "0"}}}, {"name": "rpn_cls_score/strided_slice_2", "op": "StridedSlice", "input": ["rpn_cls_score/Shape", "rpn_cls_score/strided_slice_2/stack", "rpn_cls_score/strided_slice_2/stack_1", "rpn_cls_score/strided_slice_2/stack_2"], "attr": {"T": {"type": "DT_INT32"}, "Index": {"type": "DT_INT32"}, "shrink_axis_mask": {"i": "1"}, "begin_mask": {"i": "0"}, "ellipsis_mask": {"i": "0"}, "new_axis_mask": {"i": "0"}, "end_mask": {"i": "0"}}}, {"name": "rpn_bbox_pred/mul", "op": "Mul", "input": ["rpn_bbox_pred/strided_slice", "rpn_bbox_pred/strided_slice_1"], "attr": {"_grappler_ArithmeticOptimizer_MinimizeBroadcasts": {"b": true}, "T": {"type": "DT_INT32"}}}, {"name": "rpn_bbox_pred/Reshape_1/shape", "op": "Pack", "input": ["rpn_bbox_pred/strided_slice", "rpn_bbox_pred/strided_slice_1", "rpn_bbox_pred/strided_slice_2", "rpn_bbox_pred/Reshape_1/shape/3"], "attr": {"T": {"type": "DT_INT32"}, "axis": {"i": "0"}, "N": {"i": "4"}}}, {"name": "rpn_cls_score/mul", "op": "Mul", "input": ["rpn_cls_score/strided_slice", "rpn_cls_score/strided_slice_1"], "attr": {"_grappler_ArithmeticOptimizer_MinimizeBroadcasts": {"b": true}, "T": {"type": "DT_INT32"}}}, {"name": "rpn_cls_score/Reshape_1/shape", "op": "Pack", "input": ["rpn_cls_score/strided_slice", "rpn_cls_score/strided_slice_1", "rpn_cls_score/strided_slice_2", "rpn_cls_score/Reshape_1/shape/3"], "attr": {"T": {"type": "DT_INT32"}, "axis": {"i": "0"}, "N": {"i": "4"}}}, {"name": "rpn_bbox_pred/mul_1", "op": "Mul", "input": ["rpn_bbox_pred/mul", "rpn_bbox_pred/strided_slice_2"], "attr": {"_grappler_ArithmeticOptimizer_MinimizeBroadcasts": {"b": true}, "T": {"type": "DT_INT32"}}}, {"name": "rpn_cls_score/mul_1", "op": "Mul", "input": ["rpn_cls_score/mul", "rpn_cls_score/strided_slice_2"], "attr": {"_grappler_ArithmeticOptimizer_MinimizeBroadcasts": {"b": true}, "T": {"type": "DT_INT32"}}}, {"name": "rpn_bbox_pred/Reshape/shape", "op": "Pack", "input": ["rpn_bbox_pred/mul_1", "rpn_bbox_pred/strided_slice_3"], "attr": {"T": {"type": "DT_INT32"}, "axis": {"i": "0"}, "N": {"i": "2"}}}, {"name": "rpn_cls_score/Reshape/shape", "op": "Pack", "input": ["rpn_cls_score/mul_1", "rpn_cls_score/strided_slice_3"], "attr": {"T": {"type": "DT_INT32"}, "axis": {"i": "0"}, "N": {"i": "2"}}}, {"name": "rpn_bbox_pred/Reshape", "op": "Reshape", "input": ["lstm_o/add", "rpn_bbox_pred/Reshape/shape"], "attr": {"T": {"type": "DT_FLOAT"}, "Tshape": {"type": "DT_INT32"}}}, {"name": "rpn_cls_score/Reshape", "op": "Reshape", "input": ["lstm_o/add", "rpn_cls_score/Reshape/shape"], "attr": {"T": {"type": "DT_FLOAT"}, "Tshape": {"type": "DT_INT32"}}}, {"name": "rpn_bbox_pred/MatMul", "op": "MatMul", "input": ["rpn_bbox_pred/Reshape", "rpn_bbox_pred/weights"], "device": "/device:CPU:0", "attr": {"transpose_b": {"b": false}, "T": {"type": "DT_FLOAT"}, "transpose_a": {"b": false}}}, {"name": "rpn_cls_score/MatMul", "op": "MatMul", "input": ["rpn_cls_score/Reshape", "rpn_cls_score/weights"], "device": "/device:CPU:0", "attr": {"transpose_b": {"b": false}, "T": {"type": "DT_FLOAT"}, "transpose_a": {"b": false}}}, {"name": "rpn_bbox_pred/add", "op": "Add", "input": ["rpn_bbox_pred/MatMul", "rpn_bbox_pred/biases"], "attr": {"T": {"type": "DT_FLOAT"}}}, {"name": "rpn_cls_score/add", "op": "Add", "input": ["rpn_cls_score/MatMul", "rpn_cls_score/biases"], "attr": {"T": {"type": "DT_FLOAT"}}}, {"name": "rpn_bbox_pred/Reshape_1", "op": "Reshape", "input": ["rpn_bbox_pred/add", "rpn_bbox_pred/Reshape_1/shape"], "attr": {"T": {"type": "DT_FLOAT"}, "Tshape": {"type": "DT_INT32"}}}, {"name": "rpn_cls_score/Reshape_1", "op": "Reshape", "input": ["rpn_cls_score/add", "rpn_cls_score/Reshape_1/shape"], "attr": {"T": {"type": "DT_FLOAT"}, "Tshape": {"type": "DT_INT32"}}}, {"name": "Shape", "op": "Shape", "input": ["rpn_cls_score/Reshape_1"], "attr": {"T": {"type": "DT_FLOAT"}, "out_type": {"type": "DT_INT32"}}}, {"name": "strided_slice", "op": "StridedSlice", "input": ["Shape", "strided_slice/stack", "strided_slice/stack_1", "strided_slice/stack_2"], "attr": {"T": {"type": "DT_INT32"}, "Index": {"type": "DT_INT32"}, "shrink_axis_mask": {"i": "1"}, "begin_mask": {"i": "0"}, "ellipsis_mask": {"i": "0"}, "new_axis_mask": {"i": "0"}, "end_mask": {"i": "0"}}}, {"name": "strided_slice_1", "op": "StridedSlice", "input": ["Shape", "strided_slice_1/stack", "strided_slice_1/stack_1", "strided_slice_1/stack_2"], "attr": {"T": {"type": "DT_INT32"}, "Index": {"type": "DT_INT32"}, "shrink_axis_mask": {"i": "1"}, "begin_mask": {"i": "0"}, "ellipsis_mask": {"i": "0"}, "new_axis_mask": {"i": "0"}, "end_mask": {"i": "0"}}}, {"name": "Reshape/shape", "op": "Pack", "input": ["strided_slice", "strided_slice_1", "Reshape/shape/2", "Reshape/shape/3"], "attr": {"T": {"type": "DT_INT32"}, "axis": {"i": "0"}, "N": {"i": "4"}}}, {"name": "Reshape", "op": "Reshape", "input": ["rpn_cls_score/add", "Reshape/shape"], "attr": {"T": {"type": "DT_FLOAT"}, "Tshape": {"type": "DT_INT32"}}}, {"name": "Shape_1", "op": "Shape", "input": ["Reshape"], "attr": {"T": {"type": "DT_FLOAT"}, "out_type": {"type": "DT_INT32"}}}, {"name": "strided_slice_3", "op": "StridedSlice", "input": ["Shape_1", "strided_slice_3/stack", "strided_slice_3/stack_1", "strided_slice_3/stack_2"], "attr": {"Index": {"type": "DT_INT32"}, "T": {"type": "DT_INT32"}, "shrink_axis_mask": {"i": "1"}, "begin_mask": {"i": "0"}, "ellipsis_mask": {"i": "0"}, "new_axis_mask": {"i": "0"}, "end_mask": {"i": "0"}}}, {"name": "strided_slice_4", "op": "StridedSlice", "input": ["Shape_1", "strided_slice_4/stack", "strided_slice_4/stack_1", "strided_slice_4/stack_2"], "attr": {"Index": {"type": "DT_INT32"}, "T": {"type": "DT_INT32"}, "shrink_axis_mask": {"i": "1"}, "begin_mask": {"i": "0"}, "ellipsis_mask": {"i": "0"}, "new_axis_mask": {"i": "0"}, "end_mask": {"i": "0"}}}, {"name": "strided_slice_5", "op": "StridedSlice", "input": ["Shape_1", "strided_slice_5/stack", "strided_slice_5/stack_1", "strided_slice_5/stack_2"], "attr": {"Index": {"type": "DT_INT32"}, "T": {"type": "DT_INT32"}, "shrink_axis_mask": {"i": "1"}, "begin_mask": {"i": "0"}, "ellipsis_mask": {"i": "0"}, "new_axis_mask": {"i": "0"}, "end_mask": {"i": "0"}}}, {"name": "strided_slice_2", "op": "StridedSlice", "input": ["Shape_1", "strided_slice_2/stack", "strided_slice_2/stack_1", "strided_slice_2/stack_2"], "attr": {"T": {"type": "DT_INT32"}, "Index": {"type": "DT_INT32"}, "shrink_axis_mask": {"i": "1"}, "begin_mask": {"i": "0"}, "ellipsis_mask": {"i": "0"}, "new_axis_mask": {"i": "0"}, "end_mask": {"i": "0"}}}, {"name": "rpn_cls_prob/shape", "op": "Pack", "input": ["rpn_cls_prob/shape/0", "strided_slice_3", "strided_slice_4", "strided_slice_5"], "attr": {"T": {"type": "DT_INT32"}, "axis": {"i": "0"}, "N": {"i": "4"}}}, {"name": "Reshape_1/shape", "op": "Pack", "input": ["Reshape_1/shape/0", "strided_slice_2"], "attr": {"T": {"type": "DT_INT32"}, "axis": {"i": "0"}, "N": {"i": "2"}}}, {"name": "Reshape_1", "op": "Reshape", "input": ["rpn_cls_score/add", "Reshape_1/shape"], "attr": {"T": {"type": "DT_FLOAT"}, "Tshape": {"type": "DT_INT32"}}}, {"name": "Softmax", "op": "Softmax", "input": ["Reshape_1"], "attr": {"T": {"type": "DT_FLOAT"}}}, {"name": "rpn_cls_prob", "op": "Reshape", "input": ["Softmax", "rpn_cls_prob/shape"], "attr": {"T": {"type": "DT_FLOAT"}, "Tshape": {"type": "DT_INT32"}}}, {"name": "Shape_2", "op": "Shape", "input": ["rpn_cls_prob"], "attr": {"T": {"type": "DT_FLOAT"}, "out_type": {"type": "DT_INT32"}}}, {"name": "strided_slice_6", "op": "StridedSlice", "input": ["Shape_2", "strided_slice_6/stack", "strided_slice_6/stack_1", "strided_slice_6/stack_2"], "attr": {"Index": {"type": "DT_INT32"}, "T": {"type": "DT_INT32"}, "shrink_axis_mask": {"i": "1"}, "begin_mask": {"i": "0"}, "ellipsis_mask": {"i": "0"}, "new_axis_mask": {"i": "0"}, "end_mask": {"i": "0"}}}, {"name": "strided_slice_7", "op": "StridedSlice", "input": ["Shape_2", "strided_slice_7/stack", "strided_slice_7/stack_1", "strided_slice_7/stack_2"], "attr": {"Index": {"type": "DT_INT32"}, "T": {"type": "DT_INT32"}, "shrink_axis_mask": {"i": "1"}, "begin_mask": {"i": "0"}, "ellipsis_mask": {"i": "0"}, "new_axis_mask": {"i": "0"}, "end_mask": {"i": "0"}}}, {"name": "Reshape_2/shape", "op": "Pack", "input": ["strided_slice_6", "strided_slice_7", "Reshape_2/shape/2", "Reshape_2/shape/3"], "attr": {"T": {"type": "DT_INT32"}, "axis": {"i": "0"}, "N": {"i": "4"}}}, {"name": "Reshape_2", "op": "Reshape", "input": ["rpn_cls_prob", "Reshape_2/shape"], "attr": {"T": {"type": "DT_FLOAT"}, "Tshape": {"type": "DT_INT32"}}}], "library": {}, "versions": {}}, "weightsManifest": [{"paths": ["group1-shard1of18.bin", "group1-shard2of18.bin", "group1-shard3of18.bin", "group1-shard4of18.bin", "group1-shard5of18.bin", "group1-shard6of18.bin", "group1-shard7of18.bin", "group1-shard8of18.bin", "group1-shard9of18.bin", "group1-shard10of18.bin", "group1-shard11of18.bin", "group1-shard12of18.bin", "group1-shard13of18.bin", "group1-shard14of18.bin", "group1-shard15of18.bin", "group1-shard16of18.bin", "group1-shard17of18.bin", "group1-shard18of18.bin"], "weights": [{"name": "strided_slice_6/stack", "shape": [1], "dtype": "int32"}, {"name": "strided_slice_6/stack_1", "shape": [1], "dtype": "int32"}, {"name": "strided_slice_6/stack_2", "shape": [1], "dtype": "int32"}, {"name": "Reshape_1/shape/0", "shape": [], "dtype": "int32"}, {"name": "strided_slice_2/stack", "shape": [1], "dtype": "int32"}, {"name": "strided_slice_2/stack_1", "shape": [1], "dtype": "int32"}, {"name": "strided_slice_2/stack_2", "shape": [1], "dtype": "int32"}, {"name": "rpn_cls_prob/shape/0", "shape": [], "dtype": "int32"}, {"name": "strided_slice_3/stack", "shape": [1], "dtype": "int32"}, {"name": "strided_slice_3/stack_1", "shape": [1], "dtype": "int32"}, {"name": "strided_slice_3/stack_2", "shape": [1], "dtype": "int32"}, {"name": "strided_slice_4/stack", "shape": [1], "dtype": "int32"}, {"name": "strided_slice_4/stack_1", "shape": [1], "dtype": "int32"}, {"name": "strided_slice_4/stack_2", "shape": [1], "dtype": "int32"}, {"name": "strided_slice/stack", "shape": [1], "dtype": "int32"}, {"name": "strided_slice/stack_1", "shape": [1], "dtype": "int32"}, {"name": "strided_slice/stack_2", "shape": [1], "dtype": "int32"}, {"name": "rpn_cls_score/strided_slice_3/stack", "shape": [1], "dtype": "int32"}, {"name": "rpn_cls_score/strided_slice_3/stack_1", "shape": [1], "dtype": "int32"}, {"name": "rpn_cls_score/strided_slice_3/stack_2", "shape": [1], "dtype": "int32"}, {"name": "rpn_cls_score/weights", "shape": [512, 20], "dtype": "float32"}, {"name": "rpn_cls_score/biases", "shape": [20], "dtype": "float32"}, {"name": "rpn_cls_score/strided_slice/stack", "shape": [1], "dtype": "int32"}, {"name": "rpn_cls_score/strided_slice/stack_1", "shape": [1], "dtype": "int32"}, {"name": "rpn_cls_score/strided_slice/stack_2", "shape": [1], "dtype": "int32"}, {"name": "rpn_cls_score/strided_slice_1/stack", "shape": [1], "dtype": "int32"}, {"name": "rpn_cls_score/strided_slice_1/stack_1", "shape": [1], "dtype": "int32"}, {"name": "rpn_cls_score/strided_slice_1/stack_2", "shape": [1], "dtype": "int32"}, {"name": "rpn_cls_score/strided_slice_2/stack", "shape": [1], "dtype": "int32"}, {"name": "rpn_cls_score/strided_slice_2/stack_1", "shape": [1], "dtype": "int32"}, {"name": "rpn_cls_score/strided_slice_2/stack_2", "shape": [1], "dtype": "int32"}, {"name": "rpn_cls_score/Reshape_1/shape/3", "shape": [], "dtype": "int32"}, {"name": "strided_slice_1/stack", "shape": [1], "dtype": "int32"}, {"name": "strided_slice_1/stack_1", "shape": [1], "dtype": "int32"}, {"name": "strided_slice_1/stack_2", "shape": [1], "dtype": "int32"}, {"name": "Reshape/shape/2", "shape": [], "dtype": "int32"}, {"name": "Reshape/shape/3", "shape": [], "dtype": "int32"}, {"name": "strided_slice_5/stack", "shape": [1], "dtype": "int32"}, {"name": "strided_slice_5/stack_1", "shape": [1], "dtype": "int32"}, {"name": "strided_slice_5/stack_2", "shape": [1], "dtype": "int32"}, {"name": "strided_slice_7/stack", "shape": [1], "dtype": "int32"}, {"name": "strided_slice_7/stack_1", "shape": [1], "dtype": "int32"}, {"name": "strided_slice_7/stack_2", "shape": [1], "dtype": "int32"}, {"name": "Reshape_2/shape/2", "shape": [], "dtype": "int32"}, {"name": "Reshape_2/shape/3", "shape": [], "dtype": "int32"}, {"name": "rpn_bbox_pred/strided_slice_3/stack", "shape": [1], "dtype": "int32"}, {"name": "rpn_bbox_pred/strided_slice_3/stack_1", "shape": [1], "dtype": "int32"}, {"name": "rpn_bbox_pred/strided_slice_3/stack_2", "shape": [1], "dtype": "int32"}, {"name": "rpn_bbox_pred/weights", "shape": [512, 40], "dtype": "float32"}, {"name": "rpn_bbox_pred/biases", "shape": [40], "dtype": "float32"}, {"name": "rpn_bbox_pred/strided_slice/stack", "shape": [1], "dtype": "int32"}, {"name": "rpn_bbox_pred/strided_slice/stack_1", "shape": [1], "dtype": "int32"}, {"name": "rpn_bbox_pred/strided_slice/stack_2", "shape": [1], "dtype": "int32"}, {"name": "rpn_bbox_pred/strided_slice_1/stack", "shape": [1], "dtype": "int32"}, {"name": "rpn_bbox_pred/strided_slice_1/stack_1", "shape": [1], "dtype": "int32"}, {"name": "rpn_bbox_pred/strided_slice_1/stack_2", "shape": [1], "dtype": "int32"}, {"name": "lstm_o/bidirectional_rnn/fw/fw/TensorArrayStack/range/start", "shape": [], "dtype": "int32"}, {"name": "lstm_o/bidirectional_rnn/fw/fw/TensorArrayStack/range/delta", "shape": [], "dtype": "int32"}, {"name": "lstm_o/bidirectional_rnn/fw/fw/LSTMCellZeroState/ExpandDims/dim", "shape": [], "dtype": "int32"}, {"name": "lstm_o/bidirectional_rnn/fw/fw/LSTMCellZeroState/Const", "shape": [1], "dtype": "int32"}, {"name": "lstm_o/bidirectional_rnn/fw/fw/LSTMCellZeroState/concat/axis", "shape": [], "dtype": "int32"}, {"name": "lstm_o/bidirectional_rnn/fw/fw/LSTMCellZeroState/zeros/Const", "shape": [], "dtype": "float32"}, {"name": "lstm_o/bidirectional_rnn/fw/fw/TensorArrayUnstack/range/start", "shape": [], "dtype": "int32"}, {"name": "lstm_o/bidirectional_rnn/fw/fw/TensorArrayUnstack/strided_slice/stack", "shape": [1], "dtype": "int32"}, {"name": "lstm_o/bidirectional_rnn/fw/fw/TensorArrayUnstack/strided_slice/stack_1", "shape": [1], "dtype": "int32"}, {"name": "lstm_o/bidirectional_rnn/fw/fw/TensorArrayUnstack/strided_slice/stack_2", "shape": [1], "dtype": "int32"}, {"name": "lstm_o/bidirectional_rnn/fw/fw/TensorArrayUnstack/range/delta", "shape": [], "dtype": "int32"}, {"name": "lstm_o/bidirectional_rnn/fw/fw/strided_slice/stack", "shape": [1], "dtype": "int32"}, {"name": "lstm_o/bidirectional_rnn/fw/fw/strided_slice/stack_1", "shape": [1], "dtype": "int32"}, {"name": "lstm_o/bidirectional_rnn/fw/fw/strided_slice/stack_2", "shape": [1], "dtype": "int32"}, {"name": "lstm_o/bidirectional_rnn/fw/fw/LSTMCellZeroState/ExpandDims_2/dim", "shape": [], "dtype": "int32"}, {"name": "lstm_o/bidirectional_rnn/fw/fw/LSTMCellZeroState/Const_2", "shape": [1], "dtype": "int32"}, {"name": "lstm_o/bidirectional_rnn/fw/fw/LSTMCellZeroState/concat_1/axis", "shape": [], "dtype": "int32"}, {"name": "lstm_o/bidirectional_rnn/fw/fw/LSTMCellZeroState/zeros_1/Const", "shape": [], "dtype": "float32"}, {"name": "lstm_o/bidirectional_rnn/fw/lstm_cell/kernel", "shape": [640, 512], "dtype": "float32"}, {"name": "lstm_o/bidirectional_rnn/fw/lstm_cell/bias", "shape": [512], "dtype": "float32"}, {"name": "lstm_o/bidirectional_rnn/fw/fw/time", "shape": [], "dtype": "int32"}, {"name": "lstm_o/bidirectional_rnn/fw/concat", "shape": [3], "dtype": "int32"}, {"name": "lstm_o/bidirectional_rnn/fw/fw/strided_slice_1/stack", "shape": [1], "dtype": "int32"}, {"name": "lstm_o/bidirectional_rnn/fw/fw/strided_slice_1/stack_1", "shape": [1], "dtype": "int32"}, {"name": "lstm_o/bidirectional_rnn/fw/fw/strided_slice_1/stack_2", "shape": [1], "dtype": "int32"}, {"name": "lstm_o/bidirectional_rnn/fw/fw/concat_1", "shape": [3], "dtype": "int32"}, {"name": "lstm_o/bidirectional_rnn/bw/bw/TensorArrayStack/range/start", "shape": [], "dtype": "int32"}, {"name": "lstm_o/bidirectional_rnn/bw/bw/TensorArrayStack/range/delta", "shape": [], "dtype": "int32"}, {"name": "lstm_o/bidirectional_rnn/bw/bw/LSTMCellZeroState/ExpandDims/dim", "shape": [], "dtype": "int32"}, {"name": "lstm_o/bidirectional_rnn/bw/bw/LSTMCellZeroState/Const", "shape": [1], "dtype": "int32"}, {"name": "lstm_o/bidirectional_rnn/bw/bw/LSTMCellZeroState/concat/axis", "shape": [], "dtype": "int32"}, {"name": "lstm_o/bidirectional_rnn/bw/bw/LSTMCellZeroState/zeros/Const", "shape": [], "dtype": "float32"}, {"name": "lstm_o/bidirectional_rnn/bw/bw/TensorArrayUnstack/range/start", "shape": [], "dtype": "int32"}, {"name": "lstm_o/bidirectional_rnn/bw/bw/TensorArrayUnstack/strided_slice/stack", "shape": [1], "dtype": "int32"}, {"name": "lstm_o/bidirectional_rnn/bw/bw/TensorArrayUnstack/strided_slice/stack_1", "shape": [1], "dtype": "int32"}, {"name": "lstm_o/bidirectional_rnn/bw/bw/TensorArrayUnstack/strided_slice/stack_2", "shape": [1], "dtype": "int32"}, {"name": "lstm_o/bidirectional_rnn/bw/bw/TensorArrayUnstack/range/delta", "shape": [], "dtype": "int32"}, {"name": "lstm_o/bidirectional_rnn/bw/bw/strided_slice/stack", "shape": [1], "dtype": "int32"}, {"name": "lstm_o/bidirectional_rnn/bw/bw/strided_slice/stack_1", "shape": [1], "dtype": "int32"}, {"name": "lstm_o/bidirectional_rnn/bw/bw/strided_slice/stack_2", "shape": [1], "dtype": "int32"}, {"name": "lstm_o/bidirectional_rnn/bw/bw/LSTMCellZeroState/ExpandDims_2/dim", "shape": [], "dtype": "int32"}, {"name": "lstm_o/bidirectional_rnn/bw/bw/LSTMCellZeroState/Const_2", "shape": [1], "dtype": "int32"}, {"name": "lstm_o/bidirectional_rnn/bw/bw/LSTMCellZeroState/concat_1/axis", "shape": [], "dtype": "int32"}, {"name": "lstm_o/bidirectional_rnn/bw/bw/LSTMCellZeroState/zeros_1/Const", "shape": [], "dtype": "float32"}, {"name": "lstm_o/bidirectional_rnn/bw/lstm_cell/kernel", "shape": [640, 512], "dtype": "float32"}, {"name": "lstm_o/bidirectional_rnn/bw/lstm_cell/bias", "shape": [512], "dtype": "float32"}, {"name": "lstm_o/bidirectional_rnn/bw/bw/time", "shape": [], "dtype": "int32"}, {"name": "lstm_o/strided_slice_3/stack", "shape": [1], "dtype": "int32"}, {"name": "lstm_o/strided_slice_3/stack_1", "shape": [1], "dtype": "int32"}, {"name": "lstm_o/strided_slice_3/stack_2", "shape": [1], "dtype": "int32"}, {"name": "lstm_o/bidirectional_rnn/bw/ReverseV2/axis", "shape": [1], "dtype": "int32"}, {"name": "lstm_o/bidirectional_rnn/bw/concat", "shape": [3], "dtype": "int32"}, {"name": "lstm_o/bidirectional_rnn/bw/bw/strided_slice_1/stack", "shape": [1], "dtype": "int32"}, {"name": "lstm_o/bidirectional_rnn/bw/bw/strided_slice_1/stack_1", "shape": [1], "dtype": "int32"}, {"name": "lstm_o/bidirectional_rnn/bw/bw/strided_slice_1/stack_2", "shape": [1], "dtype": "int32"}, {"name": "lstm_o/bidirectional_rnn/bw/bw/concat_1", "shape": [3], "dtype": "int32"}, {"name": "lstm_o/ReverseV2/axis", "shape": [1], "dtype": "int32"}, {"name": "lstm_o/concat/axis", "shape": [], "dtype": "int32"}, {"name": "lstm_o/Reshape_1/shape/1", "shape": [], "dtype": "int32"}, {"name": "lstm_o/weights", "shape": [256, 512], "dtype": "float32"}, {"name": "lstm_o/biases", "shape": [512], "dtype": "float32"}, {"name": "lstm_o/strided_slice/stack", "shape": [1], "dtype": "int32"}, {"name": "lstm_o/strided_slice/stack_1", "shape": [1], "dtype": "int32"}, {"name": "lstm_o/strided_slice/stack_2", "shape": [1], "dtype": "int32"}, {"name": "lstm_o/strided_slice_1/stack", "shape": [1], "dtype": "int32"}, {"name": "lstm_o/strided_slice_1/stack_1", "shape": [1], "dtype": "int32"}, {"name": "lstm_o/strided_slice_1/stack_2", "shape": [1], "dtype": "int32"}, {"name": "conv1_1/weights", "shape": [3, 3, 3, 64], "dtype": "float32"}, {"name": "conv1_1/biases", "shape": [64], "dtype": "float32"}, {"name": "conv1_2/weights", "shape": [3, 3, 64, 64], "dtype": "float32"}, {"name": "conv1_2/biases", "shape": [64], "dtype": "float32"}, {"name": "conv2_1/weights", "shape": [3, 3, 64, 128], "dtype": "float32"}, {"name": "conv2_1/biases", "shape": [128], "dtype": "float32"}, {"name": "conv2_2/weights", "shape": [3, 3, 128, 128], "dtype": "float32"}, {"name": "conv2_2/biases", "shape": [128], "dtype": "float32"}, {"name": "conv3_1/weights", "shape": [3, 3, 128, 256], "dtype": "float32"}, {"name": "conv3_1/biases", "shape": [256], "dtype": "float32"}, {"name": "conv3_2/weights", "shape": [3, 3, 256, 256], "dtype": "float32"}, {"name": "conv3_2/biases", "shape": [256], "dtype": "float32"}, {"name": "conv3_3/weights", "shape": [3, 3, 256, 256], "dtype": "float32"}, {"name": "conv3_3/biases", "shape": [256], "dtype": "float32"}, {"name": "conv4_1/weights", "shape": [3, 3, 256, 512], "dtype": "float32"}, {"name": "conv4_1/biases", "shape": [512], "dtype": "float32"}, {"name": "conv4_2/weights", "shape": [3, 3, 512, 512], "dtype": "float32"}, {"name": "conv4_2/biases", "shape": [512], "dtype": "float32"}, {"name": "conv4_3/weights", "shape": [3, 3, 512, 512], "dtype": "float32"}, {"name": "rpn_bbox_pred/strided_slice_2/stack", "shape": [1], "dtype": "int32"}, {"name": "conv4_3/biases", "shape": [512], "dtype": "float32"}, {"name": "rpn_bbox_pred/strided_slice_2/stack_1", "shape": [1], "dtype": "int32"}, {"name": "conv5_1/weights", "shape": [3, 3, 512, 512], "dtype": "float32"}, {"name": "rpn_bbox_pred/strided_slice_2/stack_2", "shape": [1], "dtype": "int32"}, {"name": "conv5_1/biases", "shape": [512], "dtype": "float32"}, {"name": "conv5_2/weights", "shape": [3, 3, 512, 512], "dtype": "float32"}, {"name": "conv5_2/biases", "shape": [512], "dtype": "float32"}, {"name": "conv5_3/weights", "shape": [3, 3, 512, 512], "dtype": "float32"}, {"name": "conv5_3/biases", "shape": [512], "dtype": "float32"}, {"name": "rpn_conv/3x3/weights", "shape": [3, 3, 512, 512], "dtype": "float32"}, {"name": "rpn_conv/3x3/biases", "shape": [512], "dtype": "float32"}, {"name": "rpn_bbox_pred/Reshape_1/shape/3", "shape": [], "dtype": "int32"}, {"name": "lstm_o/strided_slice_2/stack", "shape": [1], "dtype": "int32"}, {"name": "lstm_o/strided_slice_2/stack_1", "shape": [1], "dtype": "int32"}, {"name": "lstm_o/strided_slice_2/stack_2", "shape": [1], "dtype": "int32"}, {"name": "lstm_o/Reshape_2/shape/3", "shape": [], "dtype": "int32"}, {"name": "ConstantFolding/lstm_o/bidirectional_rnn/fw/lstm_cell/kernel_enter", "shape": [640, 512], "dtype": "float32"}, {"name": "ConstantFolding/lstm_o/bidirectional_rnn/fw/lstm_cell/bias_enter", "shape": [512], "dtype": "float32"}, {"name": "ConstantFolding/lstm_o/bidirectional_rnn/bw/lstm_cell/kernel_enter", "shape": [640, 512], "dtype": "float32"}, {"name": "ConstantFolding/lstm_o/bidirectional_rnn/bw/lstm_cell/bias_enter", "shape": [512], "dtype": "float32"}, {"name": "lstm_o/bidirectional_rnn/fw/fw/while/fw/lstm_cell/add/y", "shape": [], "dtype": "float32"}, {"name": "lstm_o/bidirectional_rnn/fw/fw/while/fw/lstm_cell/split/split_dim", "shape": [], "dtype": "int32"}, {"name": "lstm_o/bidirectional_rnn/fw/fw/while/fw/lstm_cell/concat/axis", "shape": [], "dtype": "int32"}, {"name": "lstm_o/bidirectional_rnn/fw/fw/while/add/y", "shape": [], "dtype": "int32"}, {"name": "lstm_o/bidirectional_rnn/bw/bw/while/bw/lstm_cell/add/y", "shape": [], "dtype": "float32"}, {"name": "lstm_o/bidirectional_rnn/bw/bw/while/bw/lstm_cell/split/split_dim", "shape": [], "dtype": "int32"}, {"name": "lstm_o/bidirectional_rnn/bw/bw/while/bw/lstm_cell/concat/axis", "shape": [], "dtype": "int32"}, {"name": "lstm_o/bidirectional_rnn/bw/bw/while/add/y", "shape": [], "dtype": "int32"}]}]}